pre-processed/two_tower_model_last.pt (torch, 377758 bytes, 34 tensors)

session_tower.input_norm.weight f4 [6]
00000000: 358f b03f fabe 7e3f 6ef4 993f 0c19 0940
00000010: f471 a03f e6db 903f
1.3793703 0.9951016 1.2027719 2.1421537 1.2534776 1.1317108

session_tower.input_norm.bias f4 [6]
00000000: 7bc8 783d 195c 55bd 49ab 1e3e 0e4f 02bd
00000010: d679 9b3d f225 8e3d
0.060738068 -0.052089784 0.15495028 -0.031813674 0.07591598 0.06940831

session_tower.input_proj.weight f4 [64, 6]
00000000: 915b 493e dad4 a33e 2bb0 08be b95f 2d3f
00000010: 13f8 49be 9109 373e 3025 033d bd8e 753e
00000020: c83d 1a3f 2c1b 64bf 4ab3 143f 67a5 51bd
00000030: 91fd d53e c848 1b3e 2668 ab3e 4378 21bf
00000040: 83e9 d83e 54cb 07bd cc39 77be 8bcc d53d
00000050: 8948 3dbe 8533 f5bc f747 59be 9e86 ba3e
00000060: 2b33 84be 41b2 36be a72f 54bd 0d70 ccbe
00000070: 7a00 cf3d 754c fabe 4bf2 a83d 952f acbe
00000080: d98b 0b3d 83eb 453f 011c cebe a4a8 743e
00000090: 7c13 d63e bc94 e03e 179d df3e 4e14 b2bf
000000a0: e916 e53e fc0d 37be 1ee1 ca3e 83e0 c43e
000000b0: 93e6 d53e 2d21 40bf e247 e63e 8ec3 3dbd
000000c0: 7dcd b03e 344f 95be 1c52 a6be ddfb a8be
000000d0: 3729 3abe 8920 9b3e 32f0 053e 6519 103e
000000e0: 93f1 1e3e 5581 e83d c80e aa3e 3f65 9dbe
000000f0: 944f d8bd 2632 80be 814b bf3c 9ad3 f93d
00000100: b996 53b9 3351 a6bd 0aa2 243f 1ef8 55be
00000110: edec 56bc a184 7abf 4869 273f cd17 6f3d
00000120: 6d7f 123f 9db0 3ebe d41e 75be 9742 8dbf
00000130: ede9 dbbd 345e 043d 002b ee3e 339a e13e
00000140: 027e 813d f40d a1bf 5cc2 043f bf9f 98be
00000150: 09d6 143f ef45 233e ee7b 063f 1e85 b5bf
00000160: e922 de3d 3ddf 50bd 66e5 5abe 0d02 5bbe
00000170: 5295 baba 4bb4 973f 1685 14bf 3229 19bd
00000180: b3a9 123f 8751 27be 0157 dbbc 0dae 4cbf
00000190: f3ca 31bd 8f90 823d bdf8 7f3e 5ecb f7bd
000001a0: e016 af3e cf95 aebf 6193 62bd a007 d1be
000001b0: bda0 20bf 091b 9fbe 53b7 0e3e c363 773f
000001c0: bb2b 09be f67f acbe 01bc a7bd f69e a5bd
000001d0: 2ada 883e e839 62bf ee02 423a fe01 cdbe
000001e0: e14c f73d 6dcd e6bd 2001 0d3d 00b9 21bf
000001f0: 38a9 2abe cc68 b4be 1637 66be 6749 80be
00000200: 7395 9b3e 1503 06be 4ee0 873e 289b de3d
00000210: 8c07 bdbe 6e64 b53e dde6 91bd 28d3 8fbe
00000220: b6b1 b8be 6316 0bbf 6566 1e3f 17a7 023d
00000230: d5d9 353f 4b6a afbf ac23 4a3f 52f6 ebbe
00000240: a597 7cbe f9e8 e53d b6d5 eb3d 4025 3e3f
00000250: beb3 503e 9b39 b2be 12ba 533e 3695 bfbd
00000260: 82ff bd3b 0620 4bbf c98b f03e 395a d0be
00000270: 477f c53e e1f4 173e 1a29 843e 3dc2 16bf
00000280: eb17 083f 9b27 09bd a369 97bd 9886 b2be
00000290: 1483 c13d c287 423e 7681 9ebe 33f1 da3e
000002a0: 1bfe e73d 8752 8cbe 0281 81be 6582 3f3e
000002b0: 666d 7c3e 80e0 94bd 059f f0be a4a4 63be
000002c0: 37e8 0bbf da7d 883f ab7f b03d 76f1 acbe
000002d0: 2858 893e 260a 443e d52c 333e 53d8 f8be
000002e0: 2e33 c03e 5437 4b3e 1c51 0c3e d9cd b63b
000002f0: 86e4 7ebd 0191 3fbe b61d b3bd e627 6bbe
00000300: 9856 cd3e 3a57 ab3e 88b0 433d b484 cbbe
00000310: bc87 103e c9f6 0ebd f226 d63d 8762 f13d
00000320: 2f8d bfbe 4bdb 89be a8fc b13e 751b 723e
00000330: 677c 023e b61d 22be 6b34 0abe b715 89bf
00000340: 6abd b23b ef88 b63d 80d1 ec3e 606e 683e
00000350: bcf7 6cbe 5f86 54bf 738f 033e c4f7 9a3e
00000360: 773e 023f 9b63 d33d 4c9d 0d3f 0227 d7bf
00000370: 9202 213e 4084 643e b6ae c3be fb4d 19be
00000380: 9e73 0fbf 0dc4 693f 8a29 f93d 99d7 853e
00000390: cb3a 0dbf 8407 d2be e867 1fbf fc97 863f
000003a0: afbb 71bd ab45 c83e 9a79 cc3e 7b91 1d3e
000003b0: b6f1 443e c4e4 66bf b468 2ebe 531d 0dbf
000003c0: d3c2 143e cf64 6abe c501 20bd 63f3 703c
000003d0: 6283 b7bd 1b67 b5be 3daa b7be c295 f93d
000003e0: 97d4 40be 9aef e33e 315a 61be 3150 3ebe
000003f0: d5be 183e d3b0 35be 1114 a53c d178 73bf
0.19663836 0.3199833 -0.13348453 0.67724186 -0.19723539 0.17874743 0.032017887 0.23980232
0.6025052 -0.8910396 0.58086073 -0.05118313 0.41795018 0.15164483 0.33477896 -0.6307413
0.42365655 -0.033152893 -0.24143142 0.10439404 -0.18484701 -0.029931793 -0.21218859 0.3643083
-0.25820288 -0.17841436 -0.051803257 -0.39929238 0.10107513 -0.48886457 0.08249339 -0.33630052
0.034068916 0.7731249 -0.4025574 0.23892456 0.4181174 0.43863475 0.43674538 -1.3912446
0.44744042 -0.17876428 0.39624876 0.3845254 0.41777477 -0.7505062 0.44976717 -0.046329074
0.34531775 -0.2916199 -0.3248452 -0.33004656 -0.18179785 0.3029826 0.13079908 0.14072187
0.15521841 0.11352793 0.33214402 -0.30741307 -0.10562053 -0.2503826 0.023351433 0.12198563
-0.00020178677 -0.08120956 0.6430975 -0.2089543 -0.013118011 -0.97858626 0.6539502 0.058372308
0.57225686 -0.1862206 -0.23937541 -1.1035947 -0.10737977 0.0323164 0.4651718 0.44062957
0.06322862 -1.2582383 0.5185907 -0.29809377 0.5813909 0.15944646 0.5253285 -1.4181249
0.10846502 -0.050994147 -0.21376571 -0.21387501 -0.0014235175 1.1851896 -0.58015573 -0.037392803
0.5729019 -0.16339694 -0.026774885 -0.7995308 -0.043406438 0.063752286 0.2499723 -0.12099336
0.3419714 -1.3639468 -0.055316333 -0.4082613 -0.6274527 -0.31075314 0.1393712 0.966366
-0.13395588 -0.33691376 -0.08190156 -0.0808696 0.26728946 -0.8836961 0.0007400949 -0.40040582
0.1207521 -0.112696506 0.0344249 -0.6317291 -0.16666114 -0.35236204 -0.22481951 -0.25056002
0.30387458 -0.13087113 0.26538318 0.108694375 -0.3691982 0.35428184 -0.07124112 -0.28090787
-0.36073083 -0.54331034 0.6187499 0.03189763 0.7103551 -1.3704313 0.7896068 -0.46086365
-0.24667223 0.11226077 0.115153715 0.7427559 0.20381066 -0.34809574 0.20676449 -0.093546316
0.005798281 -0.7934574 0.46981648 -0.40693834 0.38573667 0.14839508 0.25812608 -0.58890134
0.53161496 -0.033485036 -0.073931955 -0.34868312 0.09448829 0.189971 -0.30958146 0.42762145
0.11327764 -0.27406713 -0.25293738 0.18702085 0.24651107 -0.072693825 -0.46996322 -0.22230774
-0.54651207 1.0663407 0.08618101 -0.3377797 0.2682507 0.19144496 0.17497571 -0.48602542
0.37539047 0.19845325 0.13702816 0.005578738 -0.062229656 -0.18707658 -0.08745901 -0.22964439
0.40105128 0.33464986 0.047775775 -0.39749682 0.14114279 -0.03490332 0.10456647 0.11786371
-0.37412402 -0.2692512 0.34763074 0.23643287 0.12742768 -0.15831646 -0.13496558 -1.0709752
0.005454709 0.08912837 0.46253586 0.22698355 -0.23141378 -0.83017534 0.1284769 0.30267155
0.50876564 0.103217326 0.5531814 -1.6808779 0.15723637 0.22316074 -0.3821923 -0.14971153
-0.5603579 0.91314775 0.12166126 0.2614105 -0.55167836 -0.4102136 -0.62267923 1.0515132
-0.05901688 0.39115652 0.39936525 0.15387528 0.1923283 -0.9019282 -0.17032129 -0.5512287
0.14527445 -0.22890018 -0.039064188 0.014706465 -0.08960606 -0.35430226 -0.3587207 0.12186767
-0.18831097 0.4451874 -0.22007062 -0.18585278 0.14916547 -0.17743234 0.02015117 -0.95106226

session_tower.input_proj.bias f4 [64]
00000000: ef47 81bc 3c1a b23e da95 94be deb1 1abe
00000010: 0c93 793e 0b39 babc c76c 80bd c4f2 34be
00000020: 1675 723e 0717 313e 6d6e 1e3e a4b3 75be
00000030: f888 62be c23e ca3d 030e 903e ae52 78be
00000040: 474b 16be d596 b73e 75ba d83c 3298 443c
00000050: 8253 88bd ee15 a0be 6391 acbe 9632 51be
00000060: 3a3f 32be c4b9 3b3e 7259 fdbd d2f7 21be
00000070: d137 bc3e 4934 ee3d 5dbd 873e da9d 27be
00000080: b582 39be 1718 133e 49e1 56be 8781 80be
00000090: ee6b c33d 9e08 34be 3fba 87be 2ada 833e
000000a0: a85f 9a3e 16ca 583d a83a 9cbd 146d b1be
000000b0: 680c e6bd 7813 c3bb b1d2 193e 0288 fbbc
000000c0: c634 62be dd1b 383e bcad bebe 99c7 483e
000000d0: 928b 2bbe 8a88 7c3d 06ef 0abd 0913 203d
000000e0: d435 cbbd 9b65 bd3e acca 8a3a d9d3 ad3e
000000f0: 1170 9e3e ebac 5dbe 47cd 8fbe 6085 bb3e
-0.01578137 0.3478564 -0.29020578 -0.15106913 0.243725 -0.022732278 -0.06270748 -0.17670733
0.23677477 0.1729394 0.15471812 -0.23994309 -0.22122562 0.09875251 0.2813569 -0.2425029
-0.14677154 0.35857263 0.026456097 0.011999177 -0.06656553 -0.3126673 -0.3370467 -0.20429453
-0.17406932 0.18332583 -0.12370576 -0.15817192 0.36761335 0.11631066 0.2651166 -0.1636881
-0.18116267 0.14364658 -0.20984377 -0.25098822 0.0954207 -0.17581412 -0.26509282 0.25752383
0.30151105 0.0529271 -0.07628375 -0.34653533 -0.11232835 -0.0059532486 0.15021779 -0.030704502
-0.22090444 0.17979379 -0.37241924 0.1960739 -0.1675246 0.06165365 -0.033919357 0.039080653
-0.09922376 0.3699158 0.0010588965 0.3395069 0.30944875 -0.21647994 -0.28086302 0.36625195

session_tower.pos_emb.weight f4 [100, 64]
00000000: 381f afbf 272e 003f 7792 80bf e18a 073e
00000010: 5c99 4bbe 67d5 59bf dec6 26bf 4b97 4a3f
00000020: 133a c33f e086 3ebe 877a d1be 7137 4dba
00000030: 625d ddbc 6af2 5dbf 7a49 a0bf 0ef9 813f
00000040: 7893 8d3f fd03 33bf 2248 d43d 762e 983c
00000050: 65c6 273e 678b 843f 11a3 a7bf 6f2a b5bf
00000060: 79fe 80bf 1cdb 973e 7e82 033f 7fed 33bf
00000070: 31e7 3340 cdfc f33f b940 0240 8a5e 8abf
00000080: dbf6 c83f a874 603f cd05 d7be 49d1 06bf
00000090: 195f 08bf bb6b 1cbf 9845 c9bf 221f 71bf
000000a0: 257a b6be 3161 07be ea60 04bf b068 87bf
000000b0: f149 0cbf 478f 82bd 4f50 b63e ef6c 34bb
000000c0: 2048 a03f 973c 30be 4252 143f 3d8b 223d
000000d0: f768 26bf b966 11bf 9457 99bf 2647 e93f
000000e0: cf18 54bf 8925 1dc0 5627 433f c2d2 4f3f
000000f0: 7f0b 1c3f 4bd4 8d3e 226b a1be 525e 063f
00000100: 9e37 b2bf 11f7 723e 3a79 1abf 763b 063e
00000110: 7878 b33f 9ff1 2a3e 5e9f 35bf b383 54bf
00000120: 8381 1a3f 4e1a f6be a1dd 093e 3bfe cdbe
00000130: adae dabf 9280 b33d 7113 e7bf d268 21bf
00000140: b1ae a13f 01bf 9bbf 4a95 343f 5aa8 0b3f
00000150: 4a8b 9d3e fe18 13c0 0778 aebf 1d9f 72bf
00000160: 6b98 893e 6f93 1abe 18e2 943f 10d2 dbbe
00000170: 85b0 8f3f b4fa 213f 779e 9f3f 8bfa 1abf
00000180: bdd9 d0bf 5dc1 08be 3ebf a6bf 0115 803f
00000190: a71e 1ebf 7081 45bf 3777 1cbe 40dc c33f
000001a0: 5104 e53f 956e a4bf 2cad 853f 015b dc3f
000001b0: 162c f8bf 99e9 d3be a9ee 5abf 8243 2d3d
000001c0: 06f8 e33f 029d 1c40 ac86 af3e f721 a43e
000001d0: 3775 ef3d 0957 4bbe b89a 703e 85ff b7be
000001e0: 5432 be3e 9098 023f fa38 933f 4ed6 7a3c
000001f0: 5540 003f ab1e 0abf 5971 d3bd edda 233f
00000200: 5bab 58bf 32f7 8dbf 4ec4 5f3e cf87 29bf
00000210: 44f8 ddbf d510 8fbe 4f6f f9be 9d73 0740
00000220: aef9 f2be 3fbe 9abf ce62 1e3f fe03 c83d
00000230: 45fd 6cbe 6140 88be a703 9cbf 908e 74bf
00000240: f7c1 d73d 5af5 bd3c 3954 443f 8c7c f1bd
00000250: f5ff 44bf 219c 883e 8df8 443f b506 8cbf
00000260: 88a0 e03e d0bb 8bbf 34f8 903d d357 b33e
00000270: 986a 163f 34a9 f13d 2aca ea3f 8bbd 053f
00000280: 1b02 efbf d85d 1040 2c0d 58bf 93ac 213f
00000290: 6d50 d4be 24fd 17c0 60cd 9f3f 7c48 8c3e
000002a0: 5d16 5abf c239 d13f 5fa3 cc3f b4d8 70bd
000002b0: 1dce d73e 16f2 a33e 33c0 283f b558 8c3f
000002c0: 8457 bcbe 77d0 fe3e a851 23bf 5790 cfbe
000002d0: bfd7 d03d 8ac2 34bd 4020 0e3f 8d3a d3be
000002e0: fd59 78bf b1e6 a2be 746d 5e3f d817 c63f
000002f0: 8e09 613c 373e b83f eb08 3f3e 005b 053f
00000300: f2bb a9bf 45d1 0abd 2c88 f93f 2d28 a93d
00000310: 9911 1e3d f55f 0abf bc26 93bf b0ff 513f
00000320: 1547 f53e ad90 833c febe 94bf 064e e23f
00000330: 946f efbc 3e4a 13be f58a 5bbf 3b03 2fbf
00000340: a49f d6be 55d8 0cbf ad24 4cbe 3bac 0bc0
00000350: 6fd8 e43d 6540 8e3f 619b 9dbd 41a4 a2be
00000360: f211 65bf d9c3 ecbd 4d8a 68bf 7a68 9c3d
00000370: a0e0 e8be 9f6c 483f 57f5 de3c 69a7 c1bf
00000380: b98e 0440 47b0 bfbf b586 583e 473d 8abf
00000390: d57d 06bf b310 6f3f 76d6 cc3e d16c 0fbf
000003a0: e4de 2fc0 f51d 47bf 7bb0 0a3f 4862 cfbf
000003b0: 8674 5b3f ec60 78be 95ea c73d 7c59 713f
000003c0: 711b eb3b 9754 323f 7340 893e 01a0 2840
000003d0: f518 de3e 8aa4 89be d694 fbbc b52c b73f
000003e0: 320a 6bbe f4bb 94be 4f2c b63f a8b9 50bf
000003f0: b87e 9bbf d605 4140 1700 a43f ad54 5c3f
-1.3681402 0.5007042 -1.0044698 0.13236572 -0.1988272 -0.8509125 -0.651472 0.79137105
1.5252098 -0.18606138 -0.40913793 -0.0007828391 -0.027022067 -0.8669802 -1.2522423 1.015413
1.1060629 -0.6992796 0.10365321 0.018576842 0.16384275 1.0355042 -1.3096639 -1.4153575
-1.0077659 0.29659355 0.5137099 -0.70284265 2.8109858 1.9061524 2.0352004 -1.0810101
1.5700334 0.87678003 -0.41996613 -0.52663094 -0.5327011 -0.61101884 -1.5724363 -0.9418813
-0.35640064 -0.1322067 -0.5171038 -1.0578823 -0.54800326 -0.06374984 0.35608146 -0.002753075
1.2522011 -0.17210613 0.57938015 0.03968357 -0.65003914 -0.5679737 -1.1979852 1.8224838
-0.82850355 -2.455416 0.76231897 0.81180966 0.6095504 0.2770103 -0.31527048 0.5248767
-1.3923223 0.23727061 -0.6034123 0.1310862 1.4021139 0.16693734 -0.709463 -0.8301346
0.6035387 -0.48066944 0.13463451 -0.40233025 -1.7084557 0.08764757 -1.8052808 -0.6305057
1.2631437 -1.2167665 0.705403 0.5455376 0.30770332 -2.2984004 -1.363038 -0.9477404
0.26874098 -0.15095304 1.1631498 -0.42933702 1.1225744 0.6327317 1.2470235 -0.6053855
-1.6316448 -0.13355012 -1.3027112 1.000641 -0.6176552 -0.7715063 -0.15279852 1.530159
1.7891942 -1.2846247 1.0443473 1.7215272 -1.9388454 -0.41389158 -0.85520416 0.04230071
1.7810066 2.447083 0.34282434 0.32057163 0.11692279 -0.1985742 0.2349652 -0.35937133
0.37147772 0.5101404 1.1501763 0.015309883 0.5009816 -0.53953046 -0.10324354 0.6400593
-0.8463647 -1.1091063 0.21852228 -0.6622285 -1.734139 -0.2794253 -0.48717734 2.1164315
-0.47456115 -1.2089309 0.61869514 0.097663864 -0.2314349 -0.26611617 -1.2188615 -0.95530033
0.10535043 0.023188282 0.76691014 -0.117913336 -0.7695306 0.26681617 0.7694176 -1.0939547
0.43872476 -1.0916691 0.07078591 0.35027942 0.587564 0.11799851 1.8342946 0.52242345
-1.8672518 2.2557278 -0.843951 0.6315395 -0.4146761 -2.3748255 1.248455 0.2739905
-0.85190374 1.6345751 1.5987357 -0.058800414 0.4214944 0.32020634 0.6591827 1.0964571
-0.3678552 0.4976842 -0.6379647 -0.4053981 0.101974 -0.04413084 0.5551796 -0.41255608
-0.9701231 -0.3181663 0.8688576 1.5476027 0.013735188 1.4393986 0.18655746 0.5209198
-1.3260481 -0.03389098 1.9494681 0.08259616 0.038591 -0.5405267 -1.1496196 0.82030773
0.47905794 0.016060198 -1.1620786 1.7680061 -0.02922801 -0.1438379 -0.85758907 -0.68364304
-0.4191867 -0.55017596 -0.19935866 -2.182387 0.11174094 1.1113402 -0.07695652 -0.3176594
-0.8948051 -0.115607925 -0.9083603 0.07637115 -0.45483875 0.7829074 0.027216597 -1.5129215
2.071211 -1.497567 0.21145137 -1.079995 -0.52535754 0.93384856 0.4000737 -0.56025416
-2.7479792 -0.77780086 0.5417554 -1.6201868 0.85724676 -0.24255723 0.0976154 0.9427717
0.007174902 0.69660324 0.26806983 2.6347659 0.43378416 -0.26883346 -0.030710619 1.4310519
-0.22953108 -0.29049647 1.4232272 -0.8153329 -1.2148046 3.0159812 1.2812527 0.86066705

session_tower.transformer.layers.0.self_attn.in_proj_weight f4 [192, 64]
00000000: 6b9e d2bd 665f 4c39 62f2 aa3e 2406 763d
00000010: dd46 a9be 2bd7 ab3c d583 32be 41a2 63bd
00000020: 9230 2c3e de81 1c3d e9ff 4b3e 6b84 e93e
00000030: 89e3 ed3d 7055 a4be 14fc f83d 8305 d03d
00000040: 107c 1dbe f7ec 043e 1794 53be 4218 90be
00000050: a55a 17be db77 843e 193d 51be 45b2 133e
00000060: 136b 5ebd aebb 49bd 8c38 603b 2dd6 ce3e
00000070: ad6c c2be 4494 03be 747a 2abe 2205 ab3d
00000080: 89fa 363e d80d 35be 6807 a63e 28a3 eebd
00000090: dcbe e83d 524b cd3e 820e 7a3e 44c8 8ebe
000000a0: 2065 b0be 029a 9bbe 3b06 3c3e 694d a4bd
000000b0: 7457 66bd 71fd bf3e 495f c1bc e7fd 383e
000000c0: 9464 1fbe 5e55 f43d 5c7c d33e c292 9f3e
000000d0: fa5c a53e d77c 8f3d c0f8 9e3d 9196 ae3b
000000e0: bd84 c3be 7b37 243e 4113 bebd bca0 bfbe
000000f0: bae0 293c 8239 093f a343 d73e a290 b63e
00000100: 1084 f33b 4e48 b6bd c08e f53c bf96 51bd
00000110: 722d b4bd 811e bd3d f45b 1c3e 87c3 53bd
00000120: 7795 47be 1528 2fbd 6ccb d6bd 6790 28bd
00000130: 3a0d 9ebd 9c5e f7bd 0936 e7bd cd6b cdbd
00000140: 5ea5 0dbe 0c8c 9d3d 9c9a d3bd f93c 7a3d
00000150: 59f9 df3d 3e04 ebbd 9aa0 e33d 5c13 9ebd
00000160: 1b46 6c3e 9a8b 0d3e 587a a33d e5e6 b7bd
00000170: 7845 44bc 8125 f0bd 1fbc f7bb e30e 3f3e
00000180: 3836 ddbb bc19 b3bd 4dff 89bd 5552 d1bd
00000190: 011a 753d 99cd 7abd 0014 e73d 716a b53d
000001a0: 8292 b63d 5db6 453c 2785 9dbd 37c7 623d
000001b0: 6351 6d3d 8c59 a33d dc70 af3d 384c a93b
000001c0: 4bb3 32be ea63 f63c 2724 59bd 4c0e e13c
000001d0: e6f4 0dbc e83d f1bd 9906 89bd 94d8 dbbc
000001e0: cc8f e6bc 7135 f03b 8cc9 b1bd 1226 39bc
000001f0: 3c21 80bd de39 27be ca0f 5e3d 810e 44be
00000200: 29ce 98bd 9a13 22bd fa01 e7bd d649 56be
00000210: d86f 883d 87d2 1b3d 7bf0 bc3d da2b 07bd
00000220: e004 56bd 1110 b9bd 4f89 583d d2ba 1ebe
00000230: cf86 313d 799a ca3c a928 a83d cfbd 90bd
00000240: 5f11 bb3d f55b 9bbd 63c5 9c3d 4728 343e
00000250: 346a 86bd 8b8d 43bd 2bfa cfbd ed28 683b
00000260: ce0a 3c3d 1b18 103d e021 503e 1555 913d
00000270: 4a29 0f3e 4863 d7bc 3894 aa3d 815b 173e
00000280: 9156 b5bd ad07 c63c 45e1 ebbd 8009 243e
00000290: a74c abbd 7a80 82bb 09b0 23be 7cca f83d
000002a0: 4638 643e ad03 983c 8214 c2bd 5248 5a3d
000002b0: 1c82 023c d0c6 063e b0b5 c9bc 4678 0abe
000002c0: 1709 2b3e 6a7e 4c3d 2167 093e b857 80bd
000002d0: c1da d9bd 6f74 c6bd 7a31 5fbd 62eb 91bd
000002e0: 5e46 fd3d d4be bfbd ace7 9d3d 9767 253e
000002f0: 6bba 1b3e 8b68 8abe 7e93 43be 99f5 123d
00000300: 673c 7e3d 7fd7 7bbd cc17 4d3e 318b 3c3d
00000310: 181a 6abe 82d9 2c3d a00d 013d 3bd5 233c
00000320: 27ed 0abe 9469 4abe da2e 63be a0e2 f53d
00000330: d377 9b3d 192d cbbd 3c12 e6bd 9acb 57be
00000340: 0331 72bd cb03 da3d 9888 973b 4119 7cbe
00000350: 55b8 e0bc 0b39 8b3d e81d 443e 31f5 7b3d
00000360: e29f d8bd f334 1cbe eba3 fbbd c33c a03d
00000370: b9f9 97bc 38bc 0cbe e7a1 1f3d 0501 2abe
00000380: 1bd3 9a3d c56b 17be 1e20 33bd c2df 3dbe
00000390: 0f82 093e a7ef 273e 4510 cc3a 98ff 56bd
000003a0: cac1 b7be 1c24 acbd e302 8abd 3fa4 10be
000003b0: 4bd3 0c3c 3892 00bd e600 983d 5ea0 133e
000003c0: 4dd2 0dbe f182 f2ba 2336 cb3d 4a70 973c
000003d0: 2be9 0bbd d724 133e 4b7d a33d 069f 233e
000003e0: 7409 593d a751 eabd fc9f fbbc 97a0 0cbe
000003f0: 1fc3 fdbd e1ec 9e3e 6d91 563d cceb 99bd
-0.10284122 0.00019490495 0.33388048 0.06006445 -0.33061877 0.020976624 -0.17433102 -0.05557466
0.16815403 0.03820979 0.1992184 0.4560884 0.116156645 -0.32096434 0.12157455 0.10157301
-0.15379357 0.1298102 -0.2066196 -0.28143507 -0.14780672 0.25872692 -0.20433463 0.14423473
-0.054301333 -0.04925125 0.0034213392 0.40397778 -0.37973538 -0.12849528 -0.16648275 0.083505884
0.17869009 -0.17681062 0.32427526 -0.11652213 0.113645285 0.40096527 0.24419597 -0.27887166
-0.34452152 -0.30390936 0.18361752 -0.08022577 -0.056235746 0.37498048 -0.023605006 0.18065606
-0.15565711 0.11930345 0.41305816 0.31166655 0.32297498 0.07006233 0.07762289 0.0053280075
-0.3818721 0.16036789 -0.09281016 -0.37427318 0.01036852 0.53603375 0.4204379 0.3565722
0.0074315146 -0.0890051 0.029975295 -0.051169153 -0.087977305 0.09234334 0.15269452 -0.05170014
-0.1949061 -0.042762835 -0.104880184 -0.041153338 -0.077173665 -0.12078592 -0.11289603 -0.10030327
-0.13832614 0.076927274 -0.10332224 0.061093304 0.10936231 -0.114754185 0.11114617 -0.07718536
0.23073618 0.13822785 0.079823196 -0.089795865 -0.011979453 -0.11725903 -0.0075602676 0.18658023
-0.006750848 -0.08745143 -0.06738148 -0.10220782 0.059839252 -0.06123123 0.112831116 0.08858193
0.08914663 0.012067405 -0.076914124 0.055365767 0.057938945 0.07976064 0.08566448 0.0051665567
-0.17451207 0.03007694 -0.053012993 0.027472638 -0.008664345 -0.11779386 -0.066907115 -0.026836671
-0.02814474 0.0073305895 -0.0868102 -0.011300581 -0.06256339 -0.16330668 0.054214276 -0.19146158
-0.07461197 -0.039569475 -0.11279674 -0.20926604 0.066619575 0.03804257 0.092255555 -0.033000804
-0.052250743 -0.090362675 0.052865323 -0.15500954 0.043341454 0.024731861 0.0821088 -0.07067453
0.09134173 -0.07585899 0.07654836 0.1759349 -0.065632254 -0.047742408 -0.10155138 0.0035424784
0.04590874 0.03517924 0.20325422 0.07096306 0.13980594 -0.026292458 0.08329052 0.14781
-0.08854402 0.024173582 -0.11517576 0.16019249 -0.0836423 -0.0039826008 -0.15985121 0.12147996
0.22287092 0.01855644 -0.09476568 0.053291626 0.007965591 0.13161778 -0.024622768 -0.13522443
0.16702686 0.049925245 0.13418247 -0.06266731 -0.10637427 -0.09690177 -0.054490544 -0.07124974
0.12366937 -0.093625695 0.077102035 0.16152798 0.15207832 -0.27032885 -0.19099233 0.03587875
0.062069323 -0.06148481 0.20028609 0.04603118 -0.22861516 0.04219962 0.031507134 0.009999569
-0.13567029 -0.19766837 -0.22185841 0.12006116 0.07591214 -0.09920711 -0.11233947 -0.21073762
-0.059128772 0.10645255 0.0046244375 -0.24619009 -0.027431646 0.067979895 0.19152033 0.06151313
-0.1057737 -0.15254574 -0.12287124 0.078240894 -0.018551694 -0.13743675 0.03897276 -0.16601951
0.075597964 -0.14787205 -0.0437318 -0.18542388 0.1342852 0.16400014 0.0015568814 -0.052489847
-0.35890037 -0.08405325 -0.06738832 -0.14125155 0.008595298 -0.031389445 0.07422046 0.14416644
-0.13849755 -0.0018502158 0.09922435 0.01848616 -0.034157913 0.14369522 0.07982882 0.15978631
0.05298753 -0.11441355 -0.030715935 -0.13733135 -0.12390732 0.310401 0.052384783 -0.07515678

session_tower.transformer.layers.0.self_attn.in_proj_bias f4 [192]
00000000: 9a00 9abe df58 943c ba4e 58bc 3e82 1a3c
00000010: ad58 64be 1839 57be 6ee0 16bd 0474 c83c
00000020: 2584 f93c ca0e 973d 4b24 94bc 57a6 873e
00000030: defd 4b3e 5e6b e7be d6fc 9bbc 0363 2e3a
00000040: 71f7 ad3e d607 bd3e 423b 803d 5616 a2bc
00000050: a3a6 38bd 6d9f 6ebe b257 b3bc 1b6c 83bd
00000060: efd4 6ebd 2e67 b4be 7d9d 57bd 79a5 8a3c
00000070: 5bad a13e 4ebb 5bbe 7ee3 913c fa49 34bd
00000080: 316b 6e3c 9983 60bb 29a2 033e df18 a1bd
00000090: c6a1 29bd 4fef f8bd d01b afbd e88b 77bd
000000a0: 4500 c93c 0cf5 823a f9e8 66bd a913 4c3d
000000b0: 9fb9 9c3d 0ef7 673c bc4d 55be 2fa2 70bd
000000c0: 1a28 1d3e 275c d33e 216d cbbd 1870 79be
000000d0: 58c8 09bd b5c9 02be b13e f83d 76f1 0cbf
000000e0: efa0 14be b99b 3ebd 4bd9 3d3d e2b7 c63d
000000f0: ea89 263d 09c1 5e3d a365 36be ddae b0bc
00000100: 31b3 edbb 6400 263d 4c79 41bd 0473 793d
00000110: 873d 57bd 0369 89bc 2a53 e1bd 41c7 183b
00000120: d233 383d a06b 1bbd 66f3 b9bd 5166 36bc
00000130: 6f0c d83d fe1b a7bd a468 c2bd 295e f3bd
00000140: 043b 903e 6707 8e3e 1159 423e caf9 7abb
00000150: ef0c c7bb 2082 8bbe 7bba 7ebe f46f dd3c
00000160: 4409 48be 7e6a 9abe 745f 7ebe e34e 32bb
00000170: e9fb 9c3e 0952 4abe 5d22 073e 4b4e 2d3d
00000180: d96d af3e 8033 ccbe 5c2e c23e b814 f4be
00000190: ef70 8c3d e440 d6be 5a5c 88be 7c56 6e3d
000001a0: 2391 a33e 0ca0 613e ae96 8dbe e15d 81be
000001b0: d3fe ee3e 1fd3 803e 3985 a9be 9768 863e
000001c0: 1b1d 993d cc9a 523d 3000 12be dbb9 05bd
000001d0: 382c b4bd 8373 9abc 94c8 c33d cf18 f0bd
000001e0: f686 6cbd 6b73 f5bd 12d7 89bb 0927 103e
000001f0: a02b 123d bccf c73d 1a21 b6bd 5f3a dfbd
00000200: da1b e83c d93e 733c 6172 4fbc 7b17 32bc
00000210: 7784 5e3c a590 4dbc cb38 0c3d 8932 a43a
00000220: 5eba de3c 60da 933c ad88 043d 511e e6bc
00000230: 4a46 9938 e3dd 4bbb 8eec 043d a991 cb3c
00000240: 35f7 0ebc 71a9 4d39 14b6 943d afd7 8cbc
00000250: c6ce 39bd 30a8 c6bc e08a 08bd a958 ff3c
00000260: 60e1 05bd da4b fc3c 7b95 11bd 8e40 c3bd
00000270: 8d4f 7a3d 37d7 783d 7a82 533d 104c 9fbd
00000280: bfbe b03c e704 2a3d 0fd2 3fbb 9132 93ba
00000290: 5176 113d 58a3 0bbd a5ab 50bc 4e97 203a
000002a0: bc30 573c cce7 323d bf9d 72bc 1747 2e3d
000002b0: 43de fb3c 6b10 0d3d 7d22 e03c 6502 fa3c
000002c0: 12d3 a0bc ea39 853c 2d65 b43c a99f 713c
000002d0: 94bc 85bc 3f30 fcbb 63f9 e038 b5cf 893b
000002e0: 54ba da3b 58ba 133c 81fd d2bc 254c 383b
000002f0: 5983 fdbc 7c16 61bc 6abd 74bd 25ab 153d
-0.30078584 0.018108783 -0.013202364 0.009430466 -0.22299452 -0.21017873 -0.036835127 0.024469383
0.03045852 0.07375868 -0.018083712 0.26494095 0.19921061 -0.45199102 -0.01904146 0.0006652327
0.33977845 0.3692004 0.062613025 -0.019786041 -0.045080792 -0.23303004 -0.021892402 -0.06417104
-0.058308538 -0.3523497 -0.052640427 0.016924607 0.31577572 -0.2145817 0.017808672 -0.044015862
0.014551924 -0.0034258126 0.12854828 -0.07866072 -0.041414045 -0.121550195 -0.08550227 -0.06043616
0.024536261 0.0009991243 -0.056374524 0.049823437 0.07652592 0.0141580235 -0.20830435 -0.05874842
0.15347329 0.41281244 -0.09932924 -0.24359167 -0.03363833 -0.12772258 0.121213324 -0.5505594
-0.14514516 -0.046535227 0.046349805 0.097030416 0.04065887 0.05438331 -0.17812209 -0.021567756
-0.0072540273 0.040527716 -0.04723482 0.060900703 -0.05254891 -0.016773706 -0.110021904 0.0023312124
0.044971295 -0.037944436 -0.09079628 -0.011132793 0.105492465 -0.08159636 -0.09492615 -0.11883194
0.28170025 0.27740023 0.18979289 -0.0038295859 -0.00607454 -0.27247715 -0.24875824 0.027030922
-0.19534785 -0.30159372 -0.248411 -0.0027207665 0.30660942 -0.19757856 0.13196702 0.042310994
0.34263495 -0.3988304 0.37925994 -0.47672057 0.06857478 -0.41846383 -0.2663296 0.058187947
0.31946668 0.2203371 -0.27654022 -0.25266936 0.4667879 0.25161073 -0.33109453 0.2625167
0.074762546 0.051417157 -0.14257884 -0.03264795 -0.087974966 -0.018853908 0.095597416 -0.11723482
-0.057745896 -0.11984905 -0.0042065466 0.1407739 0.035686135 0.09756419 -0.08893032 -0.10899805
0.028333593 0.014846527 -0.012661547 -0.010869856 0.013581387 -0.012546693 0.03423385 0.0012527268
0.027188476 0.018048465 0.032356907 -0.028090628 7.308701e-05 -0.0031107597 0.03245216 0.02484973
-0.008725931 0.00019613445 0.07261291 -0.01719269 -0.04536321 -0.02425012 -0.033335567 0.031170206
-0.032685637 0.030797888 -0.035542946 -0.09533797 0.06111102 0.06075212 0.051638104 -0.0777818
0.02157533 0.04150858 -0.0029269492 -0.001123028 0.035513226 -0.034091324 -0.012736236 0.0006126062
0.013134178 0.04367809 -0.014808117 0.042548265 0.030745631 0.034439486 0.027360195 0.03051872
-0.019631896 0.016262967 0.0220209 0.014747539 -0.016325273 -0.007696181 0.00010727604 0.004205669
0.006675044 0.009016596 -0.025755646 0.0028121558 -0.03094642 -0.013738271 -0.05975095 0.03654017

session_tower.transformer.layers.0.self_attn.out_proj.weight f4 [64, 64]
00000000: c556 07be 7fdd 223e a259 0abc b444 4dbd
00000010: 0fb9 0e3c a3d5 f3bd d47a ca3d 7e38 c0bd
00000020: 3d8f 173d 53bf 0e3e 1233 63bd 2baa d33d
00000030: 52d0 0b3d bfcb 31bc 7275 83bd b859 ccbc
00000040: 2cbf 61bc 265f 173d 283a 0fbe 4d64 aebd
00000050: 9c4d 38bd 6377 dc3d 5103 8e3d b9d0 c2bd
00000060: 64dc 18ba 59bb b6bc a8ca 2e3e 3fe0 273d
00000070: 5183 8bbc 9fba aabd 2c26 0b3e c5a7 973c
00000080: 9317 cb3d 71e4 11be 6ae4 c1bd 3dab 10be
00000090: 1321 57bc b525 10be fc43 5d3e 1171 823b
000000a0: 4ad0 4aba f7e9 55bd da20 e4bd 70e7 7fbc
000000b0: 316a 343e 6cba 83bd 29f3 06be 4db4 053e
000000c0: 4f87 0e3e f0c4 2fbe a233 8f3d 6ce4 613d
000000d0: bf5b d43c ea29 1f3d e011 073d ddb9 b63d
000000e0: 9b6e 583b 8163 01be 09f4 9d3d 081d 96bd
000000f0: 0098 b93d 41f8 833d 00d7 be3c 3348 a0bd
00000100: 2305 40be 17e0 3e3e 7763 c83d ef7e 393d
00000110: b911 153e b6e9 093d ae45 16bd 7e99 26be
00000120: 04e6 703d 5d5a dcbd edc2 c03d ed4d 993c
00000130: d4c9 71bd 28f0 3ebc e8cf 77bd 5ca0 8f3d
00000140: 93c0 be3d e8cf 863c f6e2 b7bc 5645 ca3d
00000150: 54a8 6bbd 3877 9c3b 6d86 9d3c 6d09 2e3e
00000160: d449 7dbd c49a a83d e8b0 81bd 6b59 213b
00000170: b3e1 fe3c e3dd 893d 3084 9cbd cb50 debd
00000180: 299f 1cbe ad56 0a3e 1cc5 e8bd 5bed 28bd
00000190: 81c4 7b3c 0b3c b93c 2401 c1bd 4def 213d
000001a0: b451 013e 72c7 8abd 5b78 43bc 50c1 533d
000001b0: 2630 9abd 291e fdbd 00ae 503d c87b e0bc
000001c0: 77f0 84bd b451 3bbd 230b ca3c 3ded 653d
000001d0: 831f 573c 03cc 48bd d2c5 063e 2c8d 45bc
000001e0: d34b 4bbd 715e 833c 5ecc 0cbd c49f 383d
000001f0: 83ea c73c 2cb4 593c 00ea 57bd 7abd 0f3e
00000200: 5b03 57be a78d 643d 5f66 f2bc c9cd 26be
00000210: d599 713e fa78 d8bc 4076 f1bd 2235 86bd
00000220: 6def b73d 228c 2fbe 6a79 2ebe 3fd3 903d
00000230: c907 43bd 7e95 b43d 1e5b 4fbe 2f14 27be
00000240: e64b ea3d 0308 db3d b0b6 3dbb e48f e53d
00000250: 6134 0b3d 091d 2dbd be78 d03d 5bd8 0f3d
00000260: e769 e5bc 700f d5bb 3f6f 66ba 9a93 c4bb
00000270: 8f53 07be 7a9e 44bd 894c 743d 572b 2e3d
00000280: ba4f 653d 12de 863c 897c 9dbd 12e3 ca3c
00000290: af54 f1bd 312c e03b 387f ecbd 4eb3 933c
000002a0: 1e7d ec3d 8269 69bc 1445 653d b66a 0fbd
000002b0: 331a cc3d 6910 f93c 957e 11be ade4 91bc
000002c0: 46e0 29bc d31a 77bd 138c 0bbd 7852 41bd
000002d0: 945e 313e 71fa a2bd 105d dcbd f2ac 2b3d
000002e0: 36e0 dc3d 4f6d 61bd fce6 1f3c a43f 56be
000002f0: f5c8 583b 5300 abbd a934 4ebd 1677 e3bd
00000300: e400 99bd 1727 d23d 36db 84bd d879 c9bd
00000310: d2ec 143e 98d4 6fbd b80f 8e3d 9181 3bbe
00000320: 8f19 5e3e ba5c 72bc 0285 3cbd cf89 d63d
00000330: f805 51be bb29 03bd 08d9 f8bd ec03 e5bd
00000340: d870 0d3e 0eef 54bd 80a3 093c aed2 c8bc
00000350: d1c9 91bd 42c6 deba 7912 d2bc 3157 31be
00000360: 01f5 08bd ac5e 9e3c ffbb 863d 2601 ddbd
00000370: 57e8 8cbd d771 9bbd 011e 0c3b 8a07 633d
00000380: d49b 023d 4df4 acba 6369 c93d 701a 723c
00000390: 70af abbc e019 2bbd 9296 0fbe 1227 903d
000003a0: 4e8b fd3d edcc dd3d f554 86bd d36c 2f3e
000003b0: 76d6 3bbc 8416 d43d 2d19 c93d 9cd9 1bbc
000003c0: 062e 82bd 4636 b13d e666 563c 08e6 543d
000003d0: 2fef cfbd 9c8e f6bd 09df 33be e1b8 b4bc
000003e0: 8e0e 133d 5334 103e 2508 e8bd 693b 15be
000003f0: ae50 be3d 60ec 983d c8fc 08be 85b0 013d
-0.13216694 0.15904807 -0.008444222 -0.05011435 0.008711114 -0.11905982 0.09886709 -0.09385775
0.037001837 0.13940172 -0.055468626 0.10335191 0.034134217 -0.0108517995 -0.06418885 -0.024945125
-0.013778489 0.036955975 -0.13987029 -0.085152246 -0.04499589 0.10764959 0.06934226 -0.09512467
-0.00058311806 -0.022306131 0.17069495 0.040985342 -0.01703039 -0.083363764 0.1358878 0.018512616
0.09916606 -0.142473 -0.09467395 -0.14127822 -0.013130444 -0.14076884 0.21607965 0.0039807637
-0.0007736726 -0.05222508 -0.111390784 -0.015619144 0.17618634 -0.064320415 -0.13178696 0.1305706
0.13918804 -0.1716497 0.0699227 0.05514948 0.025922654 0.03885833 0.03297603 0.08922169
0.003302491 -0.12635614 0.07712562 -0.07329756 0.09062195 0.06443835 0.02329588 -0.07826271
-0.1875196 0.18640171 0.097845964 0.04528707 0.14557542 0.03367015 -0.036687545 -0.1626949
0.05881311 -0.10759423 0.09412179 0.018713916 -0.05903037 -0.011653937 -0.06050101 0.07013008
0.09314074 0.01645656 -0.02244709 0.09876506 -0.057533577 0.004774954 0.019229138 0.16995783
-0.061837986 0.08232644 -0.0633257 0.0024619948 0.031113481 0.06731775 -0.076424 -0.10855254
-0.1529509 0.13509627 -0.11365721 -0.041241985 0.015366674 0.022611639 -0.09424046 0.039534856
0.12628824 -0.067763224 -0.01193055 0.05169803 -0.07528715 -0.12359268 0.05094719 -0.027402773
-0.064911775 -0.045732215 0.024663514 0.05613445 0.013130072 -0.049022686 0.131614 -0.012057584
-0.04963286 0.016036244 -0.034374587 0.04507424 0.024403816 0.013287585 -0.052713394 0.14037123
-0.20997374 0.055799153 -0.02958983 -0.16289438 0.23593839 -0.026424874 -0.117901325 -0.06553103
0.08981214 -0.171433 -0.17038503 0.07071542 -0.047614846 0.08817576 -0.20249602 -0.16316293
0.11440258 0.106948875 -0.0028948002 0.112090856 0.0339855 -0.04226402 0.1017928 0.035118442
-0.0280046 -0.0065020844 -0.00087903807 -0.005999041 -0.13215469 -0.048002698 0.059643302 0.0425218
0.055984236 0.016463313 -0.07689769 0.024766479 -0.1178373 0.0068412055 -0.115477026 0.018029835
0.11547302 -0.014246346 0.05597408 -0.035013877 0.099659346 0.030403333 -0.14208443 -0.017809236
-0.010368412 -0.060328316 -0.034069132 -0.04719779 0.17321235 -0.07957924 -0.10759938 0.04191298
0.10784952 -0.055035885 0.009759661 -0.20922714 0.0033078764 -0.08349671 -0.05034319 -0.11106698
-0.07470873 0.10261362 -0.06487124 -0.09837693 0.14543465 -0.058552355 0.06936592 -0.18311144
0.21689437 -0.014792616 -0.046025284 0.10475504 -0.20412433 -0.03202222 -0.121507704 -0.11182389
0.13812578 -0.051985793 0.008400798 -0.024514522 -0.071185715 -0.0016996341 -0.025643574 -0.17318417
-0.03343678 0.019332252 0.06578826 -0.10791235 -0.06880253 -0.075900726 0.0021380188 0.05542711
0.03188689 -0.0013195366 0.09834554 0.014776811 -0.020957679 -0.041772723 -0.14022282 0.07038702
0.12380086 0.10830102 -0.06559173 0.17131357 -0.011464706 0.10355857 0.09819255 -0.009512331
-0.063564345 0.0865293 0.013086056 0.051977187 -0.101530425 -0.12038919 -0.1756555 -0.022060813
0.035902552 0.1408246 -0.113296784 -0.14573444 0.09292732 0.0746696 -0.13377678 0.031662483

session_tower.transformer.layers.0.self_attn.out_proj.bias f4 [64]
00000000: f150 aebd e6d8 d23c 1352 2dbc 06ce ff3d
00000010: bc55 333b ad05 b2bd a818 f33d 53a3 413d
00000020: 60aa c4b9 1337 8a3d b81d 34bd 64aa b7bd
00000030: 0bbb 853d ca21 b43d 978a 023e d212 34bd
00000040: 33ac cabd ea94 103e d945 acbd 8274 67bc
00000050: 774e c03c 0f1e 2d3d 352e ac3d 0c54 12bb
00000060: 0f27 c33c 449c 8f3d 3ecf 57bc 47c9 56bd
00000070: fca0 7fb9 90f7 803a 8155 db3d 11b3 a9bc
00000080: a7fb 4e3c 7671 423d 1cd1 6b3c 6cdd 75bc
00000090: 5478 b43d cb6e e9bd 30dc 2bbc 36b6 eb3d
000000a0: f676 dcbd ff67 4b3b c237 29ba fb05 a4ba
000000b0: 8541 1cbb 3562 1bbe 4d16 963c ee05 593d
000000c0: 8c05 cb3a 4b6e 7bbd cce4 b23a 7956 3ebd
000000d0: 00e4 f4bd 16ea 433d b35b 243d 0d3c df3d
000000e0: 15e9 7d3d de1a 2bbc 1372 f8bc 05c9 113e
000000f0: abc3 39be 974a 073d d578 973d 65ef 80bc
-0.08511532 0.02573819 -0.01057865 0.12490468 0.0027364334 -0.08692489 0.11869937 0.0472749
-0.00037510972 0.06748786 -0.043973655 -0.08968046 0.06529816 0.08795507 0.1274818 -0.04396326
-0.09896126 0.14119306 -0.0841176 -0.014126899 0.023474915 0.042264994 0.08407251 -0.0022327928
0.023822336 0.07012227 -0.013171969 -0.052438047 -0.00024378666 0.0009839404 0.10709668 -0.020715268
0.012633241 0.047471486 0.014393117 -0.015006404 0.08812013 -0.11398085 -0.0104895085 0.11509363
-0.107648775 0.0031037328 -0.0006455147 -0.0012513989 -0.0023842764 -0.15174182 0.01832118 0.05298417
0.0015489324 -0.06138448 0.0013648509 -0.046469186 -0.1195755 0.047830664 0.040126514 0.10900126
0.061989862 -0.010443417 -0.030327832 0.14236839 -0.18141048 0.03303012 0.07396094 -0.015739152

session_tower.transformer.layers.0.linear1.weight f4 [128, 64]
00000000: d212 04be 1d18 8e3b 68ea 0b3d 6607 203c
00000010: edd9 463e b16b d73c ce04 a13d 9a14 10be
00000020: 37bc 093e 1986 be3d 0029 583d 3e57 0c3a
00000030: 764f cd3c 6eeb 953d ff69 a53d 954c 273e
00000040: 49e7 90bd d4ec d0bd 6d3a d6bc 9520 633d
00000050: 3d3c 023e a8cd f4bc 35ae adbd 5d67 b73d
00000060: 1e09 823d 423e 563e 5f0b 69bd 896a 6bbd
00000070: d867 e2bd 6bd8 613d 1c39 52bd 9405 80bd
00000080: 2e82 18bc 8d4c 57be 747e 453e ccc3 afbd
00000090: ac22 2fbe 3edb a03d 7f23 67bd 4de1 83bd
000000a0: cfa5 b6ba 213c aabd dfb0 27be da59 03bd
000000b0: 13d8 b8bd 906e 163a 835c b33d 1fa7 11bd
000000c0: dc9b 4c3d f0d1 d4bd 14d3 e83c b76f c53d
000000d0: b1c6 32bd 956e ef3d 66b1 77bc f44e f3bd
000000e0: df50 9b3d 4b0d 233c 9346 f43c 2162 36be
000000f0: 50af 50bd 1a69 b9bd 53d1 843d 5362 8d3d
00000100: 7763 81be 60aa 11bd d531 263c 5e6a e53d
00000110: ea83 583d f7a7 c13c 10ce 113e e89c 3abe
00000120: d8a0 4e3e 06d4 69bd 4c4b 903d 15be 88bc
00000130: 4354 39be 4fa9 dc3c 74fb 05bd 2490 cfbd
00000140: 5842 a7bd cbb5 5dbd 23c6 2bbe 346c a13d
00000150: ded0 eb3d 2379 b6bd 14b7 53be bc7d 1ebe
00000160: f541 6e3e e3fd e0bd c432 003e 1cab 2a3d
00000170: caff 2e3e 2cf7 a13d 47b2 243a bce6 f4bd
00000180: 1baa ff3d ad32 30be e0dd 153d 61ae 5abe
00000190: df5a 193d 8ea5 b93d a266 d5bd 538f 08be
000001a0: 0365 9bbb 26db 5cbc 9875 c0bc af89 0dbe
000001b0: e186 69bc 32eb c93c ec1f eeb5 96d0 4f3c
000001c0: 46e6 0e3e 6332 7dbd 6685 773d 4b42 3a3e
000001d0: 5d00 04be 3697 17be 4887 64bd ab53 0f3e
000001e0: ea7d 4dbe faf4 36bd 8dc1 03bd bcde 12be
000001f0: 3b31 293d c4cb eabd fc58 f7bd e4cf 93bd
00000200: f5d8 d43d 86b6 32ba 3c7c e43d 62f8 f6bd
00000210: b00c 32bc 9de1 b13d 3933 b1bd 9296 b33d
00000220: 8292 4cbd c7ee 4cbe 2bb1 4838 0aba 3b3e
00000230: 0f97 fb3a 8dc2 cfbb 10b5 b4bc 28d6 85be
00000240: 7b39 8a3e 985f 5cbc 34e7 6fbc c1f4 383e
00000250: fb98 e8bd 4129 83bd 1f25 ec3c 617d 713e
00000260: 31bc eb39 02e2 06be e77b 90bd 5720 ea3d
00000270: ea29 21bd c40e 15be 1cd0 f6bc 57cb 943d
00000280: 4ccb a3bc 0cd4 12bc 69be 813d dc17 d2bb
00000290: f0d2 003e e322 89bd e113 cebd 8ddd 06be
000002a0: 2f63 363d cfc6 ef3d ba68 573d 16bd 05bd
000002b0: 06e7 36bd e483 b8bc c6cb 04bc 3056 26bd
000002c0: 8a3e 1bbd a0ff 28be 93bc e93d 7b92 b9bb
000002d0: af7d 293e 882b 503d 7c80 023e 277d 4fbd
000002e0: aaca 1ebd 61c2 653d 137d b5bd c2da aebd
000002f0: c288 3c3e 882f 4a3b 029f 9cbe 0e67 8b3c
00000300: b841 e0bd e466 473e 5400 1cbe a013 913d
00000310: 93cd f0bc 91ae ffbc f797 1a3e 7548 4abd
00000320: 3888 243e 1777 e2bd 0156 e3bc 28f3 b9ba
00000330: 30fd 36bd aa63 893b 5e4b acbd dbbc 1c3e
00000340: e3fc 273e 0360 44be 13e0 20be e484 3cbd
00000350: f525 603c dc24 113c 304b 8ebe fed1 36be
00000360: 40a5 c63d 7304 7abe 753b 9a3e 9749 cd3d
00000370: 120d 373e 3731 e83d 6026 e0bd 7bc8 49bd
00000380: d67f 4e3e eabb 1bbe 654c e93d e2bf 2ebe
00000390: 0a13 ae3d 41c4 9a3c 1fe8 883c 8b81 1cbd
000003a0: 5261 923d 9755 0dbe 6dba 0dbd 4005 14bd
000003b0: 4df9 9f3b 54ac fa3d 3378 a2bb db9f 703d
000003c0: 1f1f 043d d8e0 033d 0ab4 e03d 4733 8b3d
000003d0: a506 8abe be64 d1bd 6839 74bd 8efe 183e
000003e0: 8a70 55bd fe54 08bd 9bfc 1c3d f57f 39bd
000003f0: 6481 933e 5b68 91bd 49ec 14be 8882 d63d
-0.12897804 0.0043363706 0.034159094 0.009767389 0.1941907 0.026296468 0.078622445 -0.14070359
0.13450705 0.09302921 0.052773476 0.0005353576 0.025062304 0.07320295 0.08076858 0.16337807
-0.07075364 -0.102014214 -0.026150906 0.055450995 0.12718292 -0.02988322 -0.08480493 0.08955262
0.06349395 0.20922187 -0.05689561 -0.057474647 -0.11054963 0.055138033 -0.051323995 -0.06251064
-0.009308381 -0.21025296 0.1928652 -0.08582267 -0.1710307 0.07854317 -0.056430336 -0.06439457
-0.0013934913 -0.0831225 -0.16376065 -0.03206811 -0.09025588 0.0005738521 0.087578796 -0.03555977
0.049953327 -0.10391605 0.028420962 0.096404485 -0.04364652 0.11691014 -0.015117979 -0.118802935
0.07583784 0.0099519 0.029818809 -0.1781087 -0.05094844 -0.0905325 0.06485238 0.069035195
-0.25271198 -0.035562873 0.010143717 0.112019286 0.052860178 0.023639662 0.14238763 -0.18223917
0.20178545 -0.057086967 0.07045612 -0.0166922 -0.1809855 0.026936201 -0.032710508 -0.101349145
-0.08166951 -0.05412845 -0.16774802 0.07881966 0.11514448 -0.08909824 -0.20675308 -0.15477651
0.23267348 -0.10985925 0.12519366 0.04166709 0.17089763 0.079084724 0.0006282669 -0.119580716
0.12483617 -0.17206831 0.03658855 -0.21355583 0.037440177 0.0906478 -0.10419966 -0.13335924
-0.004742266 -0.013479983 -0.023493573 -0.13822053 -0.014253349 0.024648283 -1.7741672e-06 0.012684008
0.1395503 -0.06181563 0.060429953 0.18189351 -0.12890764 -0.14803776 -0.055793077 0.1399676
-0.20067564 -0.04466722 -0.032167006 -0.14342779 0.041306715 -0.114646465 -0.12077519 -0.07217386
0.10392944 -0.0006817359 0.11156508 -0.12059094 -0.010867283 0.086856104 -0.08652348 0.087689534
-0.04994441 -0.20012961 4.7848716e-05 0.18332687 0.0019194799 -0.006340331 -0.022058994 -0.2613995
0.2699698 -0.013450526 -0.014642525 0.18062116 -0.11357304 -0.06404353 0.028826294 0.23582985
0.00044962906 -0.13172153 -0.070548825 0.114319496 -0.039346613 -0.14556414 -0.030128531 0.072653465
-0.0199944 -0.008961689 0.06335146 -0.0064115357 0.12580466 -0.06696107 -0.10062385 -0.13170452
0.044528183 0.117078416 0.05259011 -0.03265103 -0.044653915 -0.022523828 -0.008105224 -0.04060954
-0.03790144 -0.16503763 0.11412921 -0.005663214 0.1655185 0.050822765 0.12744325 -0.050656464
-0.038767494 0.056093577 -0.08861747 -0.085378185 0.18411544 0.0030851085 -0.30590063 0.017016914
-0.10950035 0.19472843 -0.152345 0.07083821 -0.0293949 -0.03121117 0.15097032 -0.049385507
0.16067588 -0.11057871 -0.02775097 -0.0014186846 -0.044675052 0.004192789 -0.08412813 0.15306418
0.16405062 -0.1917725 -0.15710478 -0.046025172 0.013680925 0.008858886 -0.2779174 -0.17853543
0.09699488 -0.2441576 0.30123487 0.10023802 0.1787608 0.11337512 -0.109448195 -0.04926346
0.20165953 -0.15208402 0.11391524 -0.17065385 0.08499725 0.01889241 0.016712246 -0.03820948
0.071474686 -0.13802181 -0.034601618 -0.03613782 0.004882014 0.122399 -0.0049581765 0.0587462
0.032256242 0.03219685 0.1097184 0.0679689 -0.26958194 -0.10224293 -0.05962506 0.14940855
-0.05210928 -0.03328418 0.03832684 -0.045288045 0.28809655 -0.07099982 -0.1454326 0.104741156

session_tower.transformer.layers.0.linear1.bias f4 [128]
00000000: f55f cdbc cae3 b53c b0b4 b5bd 3ef0 fcbc
00000010: 4ddf 64be 8276 55be 71e8 05be ca0c bb3d
00000020: 9307 06be 8b9e 0abc e040 bcbd ad4c 4dbe
00000030: 474f 163d 5cc9 61bd 34bb a6bd b39c 48be
00000040: 40ba 92bd 989d cdbd f81c 1ebe bd9d e8bd
00000050: f3c1 753c 3657 6cbe 5dc6 32be dc6f abbd
00000060: b3b8 58be 3d43 0fbd ffc4 12be 5f2f 35be
00000070: 0c19 d9bc 0fea a0bd 5ada 6ebe 268a 71bd
00000080: 2e00 02be 5d83 1fbe 559e 8cbc a1fd 20be
00000090: 287d 0cbe 4453 efbd ec44 15be e00f 423c
000000a0: a8e0 6f3c f96a 01be 77d5 c4bd 03bf a2bd
000000b0: ce9a 55bd 2a3e 51be 8bf4 8fbc 5a62 f5bb
000000c0: e913 bd3d 196e acbd 3145 2cbe 6ab8 09be
000000d0: 03f5 5dbe 7cb1 9ebc 0c49 55bd b44b 3bbe
000000e0: 22b4 c93d e38d abbc 6261 25bc 6d1b 56be
000000f0: 82c9 72bd 17f1 14bd 967b af3a 2aaa 29be
00000100: a6c8 31bd f5e8 0ebd a6f2 d7bc 12b4 0d3d
00000110: db5c fbbd d80d afbd c7c5 04be 327f 04be
00000120: c043 2ebe 5093 8a3c 1e67 17bd 0f06 453d
00000130: 7740 d2bd f967 97bd 8313 1bbe 2b7e 21bd
00000140: e102 0abe b752 70bd 89b8 a6bd 4deb f8bd
00000150: 7d35 81be e138 73be cc9b 1dbc 192f debd
00000160: ce57 1cbe 1809 1dbd a7a3 eebd cfa4 20be
00000170: 345d 0bbe b4ab 5ebd 60a4 38bd 23df 56be
00000180: 23d2 dfbd 34d5 06be b995 48bc 3795 7fbd
00000190: 0d88 26be c731 26be 38d8 c73d 46c5 d6bd
000001a0: 5c1f b1bd e8c7 1dbc 7104 10bd 1a30 22be
000001b0: 386c 103c 99d4 babd 6489 3abe 692c 54be
000001c0: 15b2 d0bd a16d 0dbe e1a3 77bd e71a 7abe
000001d0: 56b3 a8bd 97bb 64bc 6111 54bc d103 39be
000001e0: 7570 2fbe 2ae9 78be bb01 2cbd 3a38 09be
000001f0: 4689 87be c65e d4bc bde0 1ebe 0c77 eabc
-0.02507017 0.022203345 -0.08872354 -0.030876275 -0.22350807 -0.20845988 -0.1307695 0.09133299
-0.13088827 -0.008460651 -0.091920614 -0.2004878 0.0366967 -0.055123672 -0.08141175 -0.19591026
-0.071644306 -0.10039824 -0.15440738 -0.11358211 0.014999854 -0.23080143 -0.17458482 -0.08370945
-0.21164207 -0.034976233 -0.1433296 -0.17693852 -0.026501201 -0.07857143 -0.23325482 -0.05896964
-0.12695381 -0.15577455 -0.017165342 -0.15721752 -0.13719618 -0.116858035 -0.14577073 0.011844605
0.014640965 -0.12638463 -0.09611028 -0.07946589 -0.052149586 -0.2043387 -0.017572662 -0.007488531
0.09232313 -0.08419437 -0.1682327 -0.13449255 -0.21675496 -0.01937174 -0.052071616 -0.18290597
0.09848811 -0.02094168 -0.010094019 -0.209089 -0.059274204 -0.036362734 0.0013388272 -0.16568819
-0.043404244 -0.034890134 -0.026360821 0.034595557 -0.1227357 -0.08547562 -0.12966071 -0.12939146
-0.17018032 0.016915947 -0.036963575 0.04810148 -0.10266202 -0.07392878 -0.15144162 -0.039426964
-0.1347766 -0.058672633 -0.08140666 -0.12154255 -0.2523612 -0.23752166 -0.009619664 -0.10848827
-0.1526787 -0.03833875 -0.11652308 -0.1568787 -0.13609773 -0.054362968 -0.045078635 -0.20983557
-0.10928752 -0.13167268 -0.012242728 -0.06239816 -0.16262837 -0.16229926 0.09758037 -0.10486846
-0.086485595 -0.009630181 -0.035160486 -0.15838662 0.008814864 -0.09122581 -0.18216473 -0.20720066
-0.101902165 -0.13811351 -0.06045902 -0.24424325 -0.082373306 -0.0139607405 -0.012943597 -0.18067862
-0.17132743 -0.24307695 -0.041993838 -0.13400355 -0.2647192 -0.025924098 -0.15515418 -0.02862122

session_tower.transformer.layers.0.linear2.weight f4 [64, 128]
00000000: b50f 843d 6d50 6bbb 626c f3bc eec6 87bd
00000010: b5dc 32bd 4678 383d 9f80 80bc 2557 27bd
00000020: 6367 823d d3af aabd ed11 72bd c872 3abd
00000030: 8cb9 43bd 4020 313d 6f9b 963d 65a5 a4bd
00000040: 715f 583d da43 5e3d e309 18bd 9c83 5fbd
00000050: c025 bc3c 736e a63d 4c7f 6abd 6922 1a3d
00000060: 3bcb 0ebd fb0a a8bd 1459 b4b8 3a5b e13c
00000070: a88a 013e 68d6 8fbb 341b 3ebd d6bc 8c3d
00000080: 7bda 863c 9933 b93b 4110 723c 1664 02be
00000090: e623 99bb 1c45 f5bc b4bb 173d c06a 00bd
000000a0: 43fa 22be ba5f 3cbd c919 b5bc 19eb 3c3e
000000b0: 4429 443d 9652 0d3e c880 243d b4aa 473d
000000c0: 68ed 0f3c c7e9 5d3d 83bc 16bb 18bf 0bbd
000000d0: ca34 97bd 5e8b ea3d 04a3 82bb af99 813d
000000e0: b9bc 2abc a05d 2dbd 5df9 d63d 08c3 0dbd
000000f0: 91a0 03be 9dc5 273e 87f6 bc3c 8493 b6bd
00000100: 13f7 a63d 6ed1 433d 2a29 6bbd 20fc 263e
00000110: b59d 863c 2115 a73b 664c 9e3d 80c1 923d
00000120: f898 b1bc 10d0 5d3d 58d5 123d f795 1fbd
00000130: f837 863d 91fd 89bd 4961 7f3c 493e 9d3c
00000140: 46d8 d6bd 3990 363d 77c8 6bbd 1570 583c
00000150: 37a7 333d 3122 f13c 087a 20be de65 b43d
00000160: c59a af3b bb0f febb 5e3c e6bc 7d22 76bd
00000170: 6ee6 d6bc a7eb 2abd b81e cdbd 9d9f 9fbc
00000180: a3c3 b53d 26ba 3b3c 9a0d 0cbd 23a7 cb3d
00000190: 9284 8bbd 08c6 053c 0c43 11bc 31f7 38be
000001a0: d6cf c93d 0fbc e3bd 57ac 7dbd 05a8 c6bc
000001b0: 5fce be3c 1cc7 66bd 733e 36bd 12ab 063e
000001c0: c546 51bc c0cc ba3b 2d86 c8bc 388c c03d
000001d0: d103 663d bb44 58bd 9be1 f23d cee7 4abd
000001e0: 8424 f13c e13e f1bc f229 483d a2c7 74bc
000001f0: 9aba cd3c fe6a d03d 38e9 ba3d 5734 03bd
00000200: fc53 d23d b85a c13d 0021 933d a104 cdbc
00000210: 8e34 3bbd 37a6 a3bc 3f2d a53d 3af6 f0bc
00000220: 14f2 f73d 72f7 35bb 96bf f93c b952 47bc
00000230: be5d 1a3e 61c4 003e c166 373c 6489 9a3d
00000240: 2912 c3bd 7143 1f3d fb0f 553e 0a70 083e
00000250: 53dd 1a3d 01f8 cc3c add2 86bd 78c8 aebd
00000260: 0980 f13c bfa0 0dbe c52f 14bc de48 adbd
00000270: df08 f2bd 7dfc 643d c60a c0bc 77ab 16bd
00000280: 711b 9b3c cbde 423e 61b2 78bd 81a0 a93d
00000290: 3693 143e 7dd6 3e3d 4d13 aebd 28da 793c
000002a0: 52ed b63c c63e a7bc 5b11 4d3c a120 4cbc
000002b0: 8b93 a83d f502 783d 0201 043e 1380 01bc
000002c0: 7505 9ebd 9134 10bd 4f7a c5bd 4680 87bb
000002d0: b5b1 743d 6aea 9bbd 5791 da3c 99ae 7fbb
000002e0: 1feb bbbd 4a1e e2bc 94fa b2bd d36b 833d
000002f0: fddd 283e 6cd6 0dbc ff6e e7bb c87c cf3c
00000300: 37fd dabc deb9 fe3d 563f 333c 38d6 1fbc
00000310: ae00 f4bd b595 09be 88a4 25bd 43ae 293d
00000320: ca2e 463c 8020 a93d e8b2 2bbe 9a69 44bc
00000330: 33f7 153d 447f a2bc e169 ed3c 19c0 a5bd
00000340: 8c82 88bd 1fc2 b63d f074 263d afd5 a43b
00000350: cf45 20be dd65 c4bd f348 113d ded3 903d
00000360: 44d5 043d 3ff9 b33d ed47 6f3d 7b12 f0bd
00000370: 8d2e 95bc 8d84 ffbd 0d7d 0abd 4964 3a3d
00000380: 56ec 0c3e b061 0c3e 6ba0 88bd a86e d53c
00000390: 814e 0b3d 6b48 813d a058 ccbd c581 073d
000003a0: 6f02 cfbc 5b41 1e3e 35fb 79bd 5397 2f3d
000003b0: d1ad 593d adee 783d 176d 63bb 37ac bf3d
000003c0: e146 a53d 2e22 66bd aafa c73c 48a9 28bd
000003d0: 8c2d 52bd 2799 953b 7c55 efbc 3434 e63a
000003e0: 527f 203c 0b18 393b 9206 823d 40df e03d
000003f0: 2e74 003a 0da3 a23d 6c90 19be 4a3c d9bc
0.064483084 -0.0035906092 -0.029714767 -0.0662974 -0.043667514 0.045036577 -0.015686331 -0.040854592
0.06367376 -0.08334317 -0.059099127 -0.04551962 -0.047784373 0.043243647 0.07353865 -0.08039359
0.052825395 0.054263927 -0.037118804 -0.05456887 0.02296722 0.08126535 -0.057250306 0.037630472
-0.034861784 -0.08205219 -8.599661e-05 0.02750932 0.1265055 -0.004389573 -0.04641266 0.06871955
0.016461601 0.005651903 0.014774383 -0.12733492 -0.004673469 -0.02994018 0.037044242 -0.031351805
-0.1591578 -0.04598973 -0.022107022 0.18449058 0.047890916 0.13801035 0.040161878 0.04874678
0.008784629 0.054178026 -0.0023000545 -0.034117788 -0.073831156 0.114523634 -0.003986718 0.06328141
-0.010420972 -0.042325616 0.10496781 -0.034609824 -0.1285422 0.16383977 0.023066772 -0.08914855
0.081525944 0.04780715 -0.057412304 0.16307116 0.016432622 0.0050989543 0.077294156 0.071658134
-0.021679386 0.054153502 0.03584799 -0.038961377 0.06553644 -0.06737817 0.015587159 0.019194739
-0.1049047 0.044571135 -0.057564225 0.013210316 0.04386064 0.029435249 -0.15671551 0.08808492
0.005359026 -0.00775334 -0.028104957 -0.060091484 -0.026232924 -0.04172864 -0.10015625 -0.01948529
0.08875205 0.011457955 -0.03419266 0.09943988 -0.06812395 0.00816489 -0.008866083 -0.18063046
0.09854095 -0.11119854 -0.061931934 -0.02425004 0.023291765 -0.05634223 -0.04449315 0.13151196
-0.01277322 0.0057006776 -0.024478042 0.094017446 0.056155983 -0.05279992 0.11859437 -0.049537472
0.029436357 -0.029448928 0.048868127 -0.014940174 0.025113393 0.10176657 0.09126514 -0.032032337
0.10269925 0.09441131 0.071840286 -0.025026621 -0.045704417 -0.019976718 0.08065271 -0.029414285
0.121067196 -0.0027765897 0.030486863 -0.012165719 0.15074822 0.12574913 0.011193932 0.075457364
-0.09524948 0.038882677 0.20806877 0.1332399 0.037808727 0.025020601 -0.06583152 -0.0853433
0.029479997 -0.13830851 -0.009044592 -0.08461164 -0.11818098 0.055904854 -0.023442637 -0.036784615
0.018933984 0.19030301 -0.06071699 0.08282567 0.14509282 0.04659127 -0.08499775 0.015249766
0.02232996 -0.020415675 0.012516345 -0.012458951 0.082312666 0.060549695 0.1289101 -0.00790407
-0.077158846 -0.03520638 -0.09642469 -0.0041351644 0.059739787 -0.0761307 0.026680632 -0.003901398
-0.09175705 -0.027602334 -0.087392 0.0641705 0.16490932 -0.008657079 -0.0070627923 0.025328055
-0.02673207 0.12437795 0.010940393 -0.009755664 -0.11914192 -0.13436015 -0.040440112 0.041425955
0.012096116 0.08258152 -0.16767466 -0.011988068 0.0366127 -0.019836076 0.028981151 -0.0809328
-0.06665525 0.089237444 0.040638864 0.005030356 -0.1565163 -0.095897414 0.03546996 0.070716605
0.03242995 0.08787774 0.058418203 -0.11722275 -0.018210674 -0.12476454 -0.033810664 0.045505796
0.1376203 0.1370914 -0.06671222 0.026053742 0.034010414 0.06312641 -0.099778414 0.033082742
-0.025269715 0.15454619 -0.061030585 0.042868923 0.05314428 0.060774494 -0.0034702474 0.09359019
0.0807016 -0.05618494 0.024411518 -0.041177064 -0.051312968 0.0045653763 -0.029215567 0.0017563165
0.0097959805 0.002824309 0.063489094 0.109800816 0.00049001246 0.07941256 -0.14996499 -0.026518006

session_tower.transformer.layers.0.linear2.bias f4 [64]
00000000: fb7b 4eba 7c60 7abc fd73 d93d 0d8d b1bd
00000010: ffb2 c2bd 2b93 103d ee62 e53c 9300 f93c
00000020: 3d7a 2b3d d7c3 52bd 7bf0 973d ae89 0ebe
00000030: a13a fc3d e13f a9bc 3ecf e3bc 48df 043d
00000040: 3274 b03b fd6a 073d 7b48 493d 02a5 01be
00000050: 925a 143d 8eda 95bd 5d92 603c acf1 8cbb
00000060: ed62 c43c ba0e 58bd 4306 de3d 9bbe 54bd
00000070: 4051 3abd 4474 07bd d53c 3d3e 3dbf 2f3c
00000080: 4fe3 7d3d a66c 06bc aa23 b33d e8b0 b7bc
00000090: 03d8 aebc f094 31bd b182 df3d bd2e 9e3c
000000a0: bfae 8abd de26 393c 9bcf 103e d329 52bc
000000b0: d460 b03d 997f e0bd a0be 9dbd 26be cd3d
000000c0: 44c5 9ebc 13ed 0ebd 4677 4ebd 9c8e 7abd
000000d0: f3d2 d73d 4366 acbc 5416 80bd 78e3 d9bb
000000e0: 6b8e 9bbd 5c18 363d 858d bf3d 1916 d63d
000000f0: 9c57 57be b2da 9e3d d90d 37bd 003f cd3d
-0.0007876751 -0.015281793 0.10617826 -0.086694814 -0.09506797 0.0352966 0.028001275 0.030395782
0.041864622 -0.0514563 0.07418915 -0.13919708 0.1231587 -0.020660343 -0.027808782 0.0324395
0.0053849453 0.033061016 0.04914139 -0.12660602 0.036219187 -0.073170766 0.013706771 -0.0043012705
0.023972953 -0.05274842 0.10841038 -0.051939588 -0.045487642 -0.033069864 0.18480237 0.010726747
0.061984356 -0.008204615 0.08747037 -0.022423223 -0.021343237 -0.04335493 0.10913599 0.019309396
-0.067716114 0.011300771 0.14141695 -0.0128273545 0.086122185 -0.10961837 -0.077023745 0.100460336
-0.019381173 -0.03489406 -0.050406717 -0.06117116 0.10538282 -0.021044856 -0.06254259 -0.006649431
-0.075955234 0.044456825 0.093531646 0.104534335 -0.21029514 0.077565566 -0.04469094 0.10021782
