pre-processed/two_tower_model_best.pt (torch, 377758 bytes, 34 tensors)

session_tower.input_norm.weight f4 [6]
000000 58 c8 8a 3f ea eb 80 3f 5e 99 7c 3f b0 68 cb 3f
       1.084239 1.0071995 0.9867152 1.5891323
000010 9d 7f 83 3f 5e e3 86 3f
       1.027332 1.0538137

session_tower.input_norm.bias f4 [6]
000000 b2 9d 0c 3d eb 39 d4 bc b3 34 9d 3d a2 fd 8e bc
       0.034330077 -0.025906524 0.07676067 -0.017454926
000010 c1 43 4c bb 73 97 01 3d
       -0.0031168314 0.031638574

session_tower.input_proj.weight f4 [64, 6]
000000 5a ba 8e 3e 88 d8 a0 3e 1d 33 d3 bd fe 10 1f 3f
       0.2787655 0.314152 -0.103124835 0.62135303
000010 b6 af fa bd 90 1c 8f 3d 46 df 0d be 2e 8f 83 3e
       -0.122405455 0.0698787 -0.13854703 0.25695175
000020 b2 63 d1 3e f3 d5 21 bf be 4e d4 3e 80 a0 cb 3d
       0.40896374 -0.63217086 0.41466326 0.09942722
000030 06 d4 bd 3e d8 dd a2 3d fe e5 89 3e 82 a3 e1 be
       0.37075824 0.079524696 0.26933283 -0.4407006
000040 a4 b6 c3 3e 68 2f 0d 3e 10 ae 51 be 30 2e 01 3e
       0.3822528 0.13787615 -0.20476556 0.12615275
000050 d1 26 4a be ab 71 ae bd 94 f4 38 be a6 bd 8b 3e
       -0.1974137 -0.08517774 -0.18062049 0.27293128
000060 49 5c a9 be f8 09 15 be 83 d5 05 be ec 98 b6 be
       -0.3307822 -0.14554584 -0.1306973 -0.35663545
000070 b0 0c f4 3c 0d f6 e4 be 02 07 41 3e 66 5c a8 be
       0.029791206 -0.44718972 0.1885033 -0.32882994
000080 28 25 06 3e c4 ed 17 3f 86 96 9d be 55 8e 1a 3e
       0.13100111 0.59347177 -0.30778903 0.15093358
000090 94 00 4b 3e ee 72 d1 3e d5 4d 38 3e 3c 47 5d bf
       0.1982444 0.40907997 0.1799844 -0.8643682
0000a0 d2 6b 75 3e 93 91 95 bd d0 36 80 3e 22 66 c5 3e
       0.23966911 -0.07303157 0.2504182 0.38554484
0000b0 f8 7c 98 3e 84 ec 0b bf 8c 79 a0 3e 48 ee e4 3d
       0.29782844 -0.5465777 0.31342733 0.11178261
0000c0 6b e9 78 3e e1 ab 7e be 2a 32 c8 be d1 3b 95 be
       0.24307792 -0.24870254 -0.39100772 -0.291472
0000d0 93 ce 8d be 16 c4 b2 3e 03 70 e7 3d a2 f8 21 3e
       -0.27696666 0.34915227 0.113006614 0.15817502
0000e0 6d 2d 04 3e 3a 9e ed 3d c2 9f a1 3e c4 6b a5 be
       0.12907954 0.11602445 0.31567198 -0.3230878
0000f0 70 e8 8f 3b 27 ce 99 be a0 d0 e2 3d 80 45 6d 3d
       0.0043917224 -0.30040094 0.11074948 0.05792761
000100 ab 4d d6 3d 15 fe df bd 02 d0 f4 3e 53 eb 7f be
       0.10464033 -0.10937134 0.47814947 -0.24992113
000110 58 d5 01 be d2 c3 2b bf ce eb 00 3f fd 42 5b 3e
       -0.1267904 -0.67095673 0.5035981 0.21412273
000120 cd d7 d8 3e af dd 80 be 4a 8d c6 be 47 ff 40 bf
       0.42352143 -0.2516913 -0.3877967 -0.7538952
000130 24 35 7c be 81 43 3a 3e 9b 89 6c 3e 85 fa c9 3e
       -0.24629647 0.18189813 0.23099367 0.39448944
000140 41 62 14 be 22 54 51 bf 59 26 99 3e 23 d0 07 be
       -0.14490606 -0.81769 0.2991207 -0.13262992
000150 aa ec b3 3e 86 9c 5f 3d 7b e6 9f 3e 82 2a 7a bf
       0.35141498 0.05459263 0.3123053 -0.9772111
000160 4e 17 dc bd 3e 9d db 3d d7 c3 12 bc de 76 22 be
       -0.107466325 0.10723351 -0.008957825 -0.15865657
000170 6e 38 2e 3e 13 2b 59 3f 46 6f c7 be 45 0e 89 be
       0.17013714 0.8483135 -0.38952082 -0.267687
000180 3d 9c e5 3e 28 6f 13 be c6 6e cf bd 07 09 27 bf
       0.44845763 -0.14397871 -0.1012855 -0.6524815
000190 86 b9 22 be 31 67 19 3e c9 38 6a 3d 77 7b 47 be
       -0.15891084 0.1498077 0.05718306 -0.19480692
0001a0 79 d2 d6 3d 95 a8 73 bf c4 d6 74 be c9 36 51 be
       0.10489363 -0.9517911 -0.23910052 -0.20431055
0001b0 0a c8 e6 be e9 f2 8f be 49 1b a9 3e 95 e2 0d 3f
       -0.45074493 -0.28115013 0.3302863 0.5542386
0001c0 c2 76 09 3d a1 49 dd be 8c b4 65 be 80 82 42 bd
       0.033560522 -0.43220237 -0.22432154 -0.047487736
0001d0 20 b2 00 3e 6d f3 2b bf 59 0b 0a be e8 78 b5 be
       0.1256795 -0.67168313 -0.13480891 -0.35443807
0001e0 73 88 00 3d c5 f4 e9 bd 50 12 a2 bc 08 ae 08 bf
       0.031380128 -0.11423639 -0.019784123 -0.5339055
0001f0 1f 9b 7f be 70 49 6c be 75 23 48 be 5c cb 8d be
       -0.24961518 -0.23074889 -0.19544776 -0.27694213
000200 f1 8b 99 3e b2 e7 80 bd ab 27 96 3e 3c 1c bd 3d
       0.2998958 -0.062941924 0.2932714 0.09233901
000210 47 51 af be 11 af 9c 3e 58 44 b1 bd 2a d7 70 be
       -0.34241697 0.30602315 -0.08655614 -0.23519579
000220 ef 12 ac be 14 ab dc be 88 c1 90 3e cd 7e 7a bc
       -0.33608195 -0.43099272 0.28272653 -0.015289021
000230 fd 16 ae 3e ac 33 64 bf 7c e4 ed 3e 44 be 96 be
       0.34001914 -0.89141345 0.46463382 -0.29442036
000240 33 e6 19 be 31 a6 be 3d 0b 32 29 3e 52 15 23 3f
       -0.1502922 0.09309042 0.16522996 0.6370441
000250 d4 61 95 3e 6f 4a cb be 02 a0 06 3e 8f a8 ac bd
       0.291762 -0.39705226 0.13146976 -0.084305875
000260 bd c7 20 bd 24 64 38 bf fc 0f cd 3e 0f 98 ab be
       -0.039252985 -0.720278 0.40051258 -0.3351445
000270 09 e9 80 3e c4 25 23 3e 6c 81 12 3e 3f 61 d1 be
       0.25177792 0.15932375 0.14307183 -0.40894505
000280 98 14 cf 3e da 60 c6 3d d0 ca dc 3c 7f 91 be be
       0.404454 0.09686442 0.026952177 -0.3722038
000290 17 35 29 3e 1a e3 e1 3d af db 59 be c7 da b0 3e
       0.16524158 0.11029644 -0.21275209 0.34541914
0002a0 77 cc 87 3d 8c 69 79 be 7b 13 7d be 44 0f 44 3e
       0.066307954 -0.24356669 -0.24714462 0.19146448
0002b0 5a 0d 51 3e 78 ba f4 bd 3b 23 ac be 14 7c 48 be
       0.2041525 -0.119496286 -0.3362063 -0.19578582
0002c0 ef 55 c6 be 80 6b 3d 3f af 52 5b 3e 69 f1 e7 be
       -0.38737437 0.73992157 0.2141826 -0.4530137
0002d0 30 ea 14 3e ed 35 6f 3e 70 d5 c6 3d 25 40 c2 be
       0.1454246 0.23360415 0.09708679 -0.37939563
0002e0 73 2b 85 3e 49 e4 7a 3e 3d 34 1d 3e f9 aa c6 bc
       0.26009712 0.24501146 0.15351959 -0.024251448
0002f0 88 33 ae bd db 14 19 be 5d 85 95 bd 3e 72 1e be
       -0.085059226 -0.14949362 -0.07300828 -0.15473267
000300 e4 f5 9a 3e 63 ff b5 3e c0 af b5 bc 14 86 98 be
       0.30265725 0.35546407 -0.02217853 -0.29789793
000310 21 09 47 3d 54 3f ba 3c 90 d3 d2 3d 2d b0 00 3e
       0.04859269 0.022735275 0.102942586 0.12567206
000320 18 7e bb be 60 37 61 be 54 aa b1 3e 17 6f 25 3e
       -0.3661964 -0.2199378 0.34700263 0.16155659
000330 44 7a b5 3c 1d ad 5d be 86 7a 71 be 7c 78 36 bf
       0.022153027 -0.21648069 -0.23581895 -0.71277595
000340 55 d1 ba bd f1 28 31 3e 2c 1c 9d 3e 6d b6 73 3e
       -0.09121958 0.17300774 0.30685556 0.23800059
000350 4f 66 af be 43 af 1a bf da 48 9b bc dc 08 d6 3e
       -0.34257743 -0.6042368 -0.018955637 0.41803634
000360 bb 9c 55 3e bc 5e 9c 3c d3 d9 96 3e 8f 32 87 bf
       0.20860569 0.019088142 0.29463062 -1.0562304
000370 fd 42 f7 bd 8a 49 aa 3e c4 08 86 be f1 4c 01 be
       -0.12073324 0.3325923 -0.26178563 -0.12627007
000380 78 08 e9 be c9 b8 33 3f 3c 7c 70 3e 5e 53 c5 3d
       -0.45514274 0.70203835 0.23484892 0.09635042
000390 39 6b cd be a3 d1 e7 be 79 7f ed be 13 ef 58 3f
       -0.40120867 -0.45277128 -0.46386316 0.847398
0003a0 fe 79 ae 3d 4b 23 ab 3e 47 6b 87 3e 48 c8 13 3e
       0.08519362 0.33425364 0.26449034 0.1443187
0003b0 eb 76 15 3d 60 e3 30 bf 77 2d 9a be 5b 8d b8 be
       0.036490362 -0.69096947 -0.30112812 -0.36045346
0003c0 40 78 05 3e 92 e2 44 be e6 33 bb bd ed ba ff bc
       0.13034153 -0.19227055 -0.09140758 -0.031217063
0003d0 6f 7b e0 bd 49 93 c1 be d7 eb 88 be ce 3e ce 3d
       -0.10961043 -0.37807682 -0.26742432 0.10070573
0003e0 71 bc d6 bd 49 ff c7 3e 90 7a 07 be 90 35 93 be
       -0.10485161 0.39061955 -0.13230348 -0.28751802
0003f0 a7 8c 4e 3c 83 28 48 be 9d 06 96 bd e8 0f 3c bf
       0.012606776 -0.19546704 -0.0732548 -0.7346177

session_tower.input_proj.bias f4 [64]
000000 19 31 88 bc a6 9c c3 3e dc 9e b5 be 37 9d 07 be
       -0.016624974 0.3820545 -0.35472763 -0.13243566
000010 2a 3f 90 3e ca c4 86 bc b3 40 78 bd 60 cc 2a be
       0.2817319 -0.016451258 -0.060608577 -0.16679525
000020 76 88 91 3e 83 04 43 3e da 36 e1 3d 62 eb 89 be
       0.28424424 0.1904469 0.1099679 -0.26937395
000030 17 d9 8a be 3b b0 9d 3d c1 26 4d 3e 17 22 58 be
       -0.2711875 0.07699629 0.20034315 -0.21106754
000040 10 36 ff bd d0 23 a3 3e 56 b8 07 3d 5e 01 81 3d
       -0.124614835 0.3186326 0.03313478 0.06299089
000050 4a b3 8b bd dc bb a9 be 6a 58 c2 be 50 de 4a be
       -0.06821306 -0.33151138 -0.3795808 -0.19811368
000060 d0 bd 45 be cc 08 44 3e 30 7a d3 bd ea ee 30 be
       -0.19310689 0.1914398 -0.1032604 -0.17278638
000070 43 5d cb 3e 93 00 ff 3d dd 12 9c 3e b0 0e 3e be
       0.3971959 0.124512814 0.30483142 -0.1856029
000080 ca 1f 25 be eb db 1b 3e 96 18 7e be c9 a0 73 be
       -0.16125408 0.15220611 -0.24814066 -0.23791803
000090 da 24 35 3d cc 0f 29 be 64 ba 9d be 4a fd 86 3e
       0.044224598 -0.16509932 -0.30806267 0.2636512
0000a0 22 b1 ad 3e f5 8b eb 3c 64 a2 a6 bd e9 58 b3 be
       0.33924204 0.02875326 -0.08136442 -0.3502877
0000b0 52 5f 30 be 09 b9 02 3d 13 4e 23 3e 77 41 2a bd
       -0.17223862 0.031914745 0.15947752 -0.04156634
0000c0 84 0c 0b be f7 7d 42 3e 48 7c 9b be ff 54 27 3e
       -0.13578993 0.18993364 -0.30368257 0.16341017
0000d0 e5 77 54 be 56 6d 07 3d c9 e9 a0 bd 82 aa 18 3d
       -0.20748861 0.033063255 -0.07857091 0.037271984
0000e0 a9 1a eb bd a3 e7 a8 3e a5 be ce bc ec 38 ac 3e
       -0.114796944 0.32989225 -0.02523739 0.33637178
0000f0 0a 35 b1 3e 38 fd 86 be 7d f6 9b be fd 3d af 3e
       0.34610778 -0.26365066 -0.30461493 0.3422698

session_tower.pos_emb.weight f4 [100, 64]
000000 c1 6b b0 bf 47 f7 f5 3e 03 18 81 bf 1c b9 ce 3d
       -1.3782884 0.4804022 -1.0085453 0.100939006
000010 b3 bb 95 be 35 18 5e bf 0c 50 2a bf 6d 6b 45 3f
       -0.29244766 -0.86755687 -0.6652839 0.77117044
000020 13 88 c6 3f 78 0f e9 bd f3 cf ed be 7d 69 40 3c
       1.5510277 -0.113799036 -0.46447715 0.0117439
000030 cf 7f 7a bc 37 88 65 bf c5 ba 9e bf ac 4f 89 3f
       -0.015289261 -0.8966097 -1.2400748 1.0727439
000040 27 4a 8b 3f 46 33 35 bf 3c 27 d1 3d 29 12 07 bd
       1.0882004 -0.7078136 0.102125615 -0.032976303
000050 72 e1 2f 3e 8f 7a 92 3f 20 20 ac bf 70 69 b7 bf
       0.17175844 1.1443652 -1.3447304 -1.4329052
000060 e2 66 82 bf a3 4e 9b 3e 93 34 e7 3e 07 6d 3c bf
       -1.0187647 0.30333433 0.45157298 -0.7360386
000070 83 6f 36 40 90 f5 f7 3f 22 43 ff 3f 8e 66 99 bf
       2.8505561 1.9371815 1.9942362 -1.1984422
000080 cc c4 cd 3f 4f 01 4d 3f 90 b2 d9 be 07 ff 11 bf
       1.6075683 0.8008012 -0.42519045 -0.57029766
000090 be e9 09 bf 83 96 0e bf cf 75 cb bf e3 db 87 bf
       -0.5387229 -0.5569841 -1.5895327 -1.0613979
0000a0 f4 6d d7 be a0 94 05 be 8d 8d 14 bf 3e 29 8e bf
       -0.42076075 -0.13044977 -0.5802849 -1.1106336
0000b0 51 7a 01 bf de 35 39 bd 71 81 aa 3e 16 4f 04 bd
       -0.50577265 -0.045217387 0.3330188 -0.032301985
0000c0 82 34 9b 3f a6 13 4f be d0 b2 31 3f 50 92 0f 3d
       1.2125399 -0.20222339 0.6941347 0.035051644
0000d0 b7 62 2b bf 3f 9c 1f bf f8 36 a4 bf db 15 f2 3f
       -0.669475 -0.6234779 -1.2829275 1.891292
0000e0 df f3 58 bf 6a 63 20 c0 4f 3b 42 3f 99 ba 47 3f
       -0.8474712 -2.5060678 0.7587175 0.780191
0000f0 50 a1 1f 3f ea 21 b7 3e 0c e9 ba be 19 b9 ff 3e
       0.6235552 0.35768062 -0.36505926 0.49945906
000100 dd ef b1 bf 96 0d 7a 3e cf 07 15 bf 6f 66 27 3e
       -1.3901325 0.24419245 -0.5821504 0.16347669
000110 01 79 ba 3f 89 39 78 3e d7 b3 35 bf 00 b2 5d bf
       1.4568177 0.24240698 -0.7097754 -0.8659973
000120 36 5e 0a 3f cc 88 fd be 89 2b 22 3e 7c de ce be
       0.54050004 -0.4951843 0.1583692 -0.40404117
000130 6d 1c dd bf dc 2c e0 3d f2 89 e9 bf 66 56 28 bf
       -1.72743 0.10946056 -1.8245223 -0.65756834
000140 f0 09 a4 3f fa 74 9d bf b5 fc 37 3f 8b ce 18 3f
       1.2815533 -1.2301323 0.71869975 0.5969016
000150 e2 5d a0 3e d8 4f 1d c0 eb fb b1 bf d1 51 6c bf
       0.31321627 -2.4579983 -1.3905004 -0.9231234
000160 ee 94 8b 3e 37 77 03 be 78 b8 98 3f ce 74 ce be
       0.27262062 -0.12838446 1.1931295 -0.4032349
000170 36 17 86 3f 75 07 18 3f 04 41 9b 3f 12 9a 18 bf
       1.0475833 0.5938638 1.2129216 -0.5961009
000180 0a 5d d6 bf a4 c3 15 be 8e 16 a7 bf 9c d0 85 3f
       -1.6747143 -0.14625412 -1.3053758 1.0454288
000190 e6 f0 1c bf ac 4e 44 bf 4d ab 06 be 7e df cc 3f
       -0.6130508 -0.76682544 -0.13151284 1.6005704
0001a0 66 da f1 3f 65 8f a8 bf a8 7e 8b 3f 9e 88 e4 3f
       1.8894775 -1.316876 1.0898027 1.7854192
0001b0 1f 5e 01 c0 05 71 dd be d6 f3 64 bf 4d 44 af 3a
       -2.0213697 -0.4325029 -0.89434564 0.0013371796
0001c0 10 e7 ed 3f f4 43 21 40 0a fd 9e 3e 25 59 b3 3e
       1.858614 2.5197725 0.31052428 0.3502895
0001d0 4e 92 40 3e 4b b7 32 be bb 9b 92 3e 6c 28 d9 be
       0.18805811 -0.17452733 0.28634438 -0.42413652
0001e0 bf 8a d4 3e f8 72 1e 3f 28 6f 94 3f 78 f7 e1 3a
       0.41512105 0.6189418 1.1596422 0.0017239889
0001f0 fe ae 00 3f a4 3d 17 bf 47 1d b7 bd 94 75 29 3f
       0.50267017 -0.5907843 -0.08941131 0.66195035
000200 4f 54 52 bf 3d 44 90 bf b7 dd 50 3e 8c 73 37 bf
       -0.82159895 -1.1270825 0.20397078 -0.71660686
000210 9e b4 e3 bf d9 02 90 be 2a c4 f4 be 65 7e 08 40
       -1.7789495 -0.28127173 -0.4780591 2.1327145
000220 97 d6 f6 be 92 ac a1 bf 45 2e 2f 3f 45 34 9c 3d
       -0.48210594 -1.2630789 0.68429977 0.07627157
000230 44 e0 6f be 34 cf 89 be eb 5d 9c bf e1 53 73 bf
       -0.23425394 -0.26915896 -1.2216161 -0.95049864
000240 ae a6 af 3d 9d a6 00 3d c0 ee 47 3f cf d2 0e be
       0.085767135 0.031408895 0.7809868 -0.13947605
000250 22 03 4f bf d6 46 98 3e f1 5f 4e 3f 45 56 8f bf
       -0.80864155 0.29741544 0.80615145 -1.1198202
000260 99 b8 eb 3e 37 72 90 bf aa 49 be 3d 63 f4 cc 3e
       0.46039274 -1.1284856 0.09291394 0.40030202
000270 bf c6 1c 3f dd 56 03 3e 7d 4c f0 3f 96 7e 14 3f
       0.6124076 0.12826104 1.8773342 0.58005655
000280 8b 0c f0 bf 19 b5 12 40 04 67 5e bf 99 1b 22 3f
       -1.8753828 2.2923033 -0.8687594 0.6332336
000290 54 f2 d6 be 41 07 19 c0 51 3d a4 3f ce c8 88 3e
       -0.41981757 -2.3910677 1.2831212 0.26715702
0002a0 26 36 54 bf 2d 7e d6 3f d6 99 ca 3f 15 a6 a1 bd
       -0.82895124 1.6757256 1.5828197 -0.07893006
0002b0 0a a7 d3 3e 87 6e ad 3e aa c5 2d 3f 21 89 90 3f
       0.41338378 0.33873388 0.67879736 1.1291848
0002c0 61 9d d1 be e1 65 01 3f 13 e6 28 bf 17 d2 f0 be
       -0.40940383 0.5054608 -0.65976065 -0.47035286
0002d0 8d 38 9f 3d b5 f3 44 bc c9 cf 0f 3f 95 bb f4 be
       0.07774458 -0.012020995 0.5617643 -0.47799364
0002e0 24 ab 83 bf 4f 1f ba be 27 7c 5a 3f 24 d9 c5 3f
       -1.0286603 -0.36352012 0.8534569 1.5456891
0002f0 fd 17 cd 3c 74 64 b3 3f 3a ce 3d 3e 6c 1e ff 3e
       0.025035853 1.4015031 0.185357 0.49827898
000300 23 a4 a9 bf a6 b3 17 bb 6c 80 fa 3f 18 71 44 3e
       -1.3253216 -0.002314785 1.9570441 0.19183767
000310 a3 9c d6 3d 33 30 17 bf 6f 09 8b bf c8 27 52 3f
       0.10479095 -0.5905792 -1.0862254 0.8209195
000320 5d 91 f2 3e 81 e8 0c 3e 29 8f a1 bf 26 69 e5 3f
       0.47376528 0.13760568 -1.2621814 1.7922714
000330 20 51 3e 3c 8a 18 b4 bd 82 43 51 bf f1 0f 32 bf
       0.011616021 -0.08793743 -0.81743634 -0.69555575
000340 17 24 cd be 8f 12 08 bf 86 c9 7e be 73 50 0a c0
       -0.40066597 -0.5315332 -0.24881563 -2.1611602
000350 10 53 0c 3e c2 d7 90 3f 9b 08 bd bd 94 1e 8e be
       0.13703561 1.1315844 -0.09230157 -0.27757704
000360 c4 c7 6f bf 4e 98 c8 bd 24 ef 67 bf 47 33 16 3c
       -0.93664193 -0.09794675 -0.90599275 0.009167499
000370 11 11 00 bf 61 59 44 3f 02 8d 8f 3d 89 03 c5 bf
       -0.5002604 0.7669888 0.07009317 -1.5391704
000380 dd d3 07 40 47 14 b8 bf e7 f8 79 3e a0 cc 86 bf
       2.122306 -1.4381188 0.24411355 -1.0531197
000390 a1 94 f8 be e5 32 6c 3f cf cb a9 3e 55 b3 04 bf
       -0.48550895 0.9226516 0.33163306 -0.5183614
0003a0 13 ed 2f c0 ec d0 46 bf 8c 75 0e 3f 84 56 cd bf
       -2.7488449 -0.7766254 0.5564811 -1.6042027
0003b0 22 01 5e 3f 60 c7 94 be 63 38 0c 3e 20 44 70 3f
       0.8672048 -0.2905836 0.13693385 0.9385395
0003c0 f4 3a cf 3d af 00 1d 3f 69 e6 87 3e 3d 99 29 40
       0.10118666 0.6132917 0.26542976 2.649978
0003d0 99 fe b8 3e 27 b5 7c be 69 4f 68 3b a8 28 ba 3f
       0.36131743 -0.24678479 0.0035447723 1.4543657
0003e0 22 4d 36 be e1 c1 a1 be af 53 ac 3f e1 5f 39 bf
       -0.17802861 -0.3159323 1.3463038 -0.72411925
0003f0 e8 c7 a0 bf 34 4d 3e 40 4f 6e ab 3f d7 ac 64 3f
       -1.2561007 2.973462 1.3393039 0.8932623

session_tower.transformer.layers.0.self_attn.in_proj_weight f4 [192, 64]
000000 4e fb 38 3b 22 9f b1 3d 94 97 42 3e c8 41 06 3e
       0.002822596 0.0867293 0.19003135 0.13111031
000010 0d d6 3f be 9d f9 1d bd ff 86 9e bd 79 d6 a2 bd
       -0.18733998 -0.038568128 -0.07740592 -0.07951064
000020 72 99 bd bc 69 18 50 bc fb 7a 02 3e eb 38 8e 3e
       -0.023144457 -0.012701132 0.12742226 0.277778
000030 27 3c b6 3c 50 ef 56 be 96 fb c0 3d db 4e b3 3d
       0.02224548 -0.20989728 0.09422986 0.08755275
000040 1d 36 2c be 9d 61 17 3e 01 30 4f be 34 d7 b3 bd
       -0.16817518 0.1478333 -0.20233156 -0.08781281
000050 49 22 c0 bd 9e 77 05 3d 8d 3d 89 bd d8 7c c2 3c
       -0.093815394 0.03258478 -0.06701193 0.02374117
000060 5b 73 97 39 63 7a 98 bc a2 95 3f bd aa a3 84 3e
       0.0002888691 -0.018613046 -0.04677356 0.25906116
000070 d6 47 7b be 98 ed 18 be c5 0e a8 bc 7c 41 1a 3e
       -0.24539122 -0.14934385 -0.020514855 0.15064043
000080 23 8d f0 3d 0e e0 c8 bc 2a 1c 65 3e c1 74 34 bd
       0.1174567 -0.0245209 0.22374025 -0.044056658
000090 62 61 a0 3d 2a bd 96 3e 06 43 d7 3d 9c 19 00 be
       0.07831074 0.29441196 0.105108306 -0.12509769
0000a0 2a ec 3a be ef c5 1a be a6 f4 68 3d 20 ce f6 bb
       -0.18254152 -0.15114568 0.05687394 -0.0075318962
0000b0 91 4c 9b bc de 76 7b 3e 89 c8 a0 3c 79 ae 23 3e
       -0.018957408 0.24557063 0.019626873 0.15984525
0000c0 77 54 41 be 06 5e a0 3c 66 cf 91 3e 4b 4e 56 3e
       -0.18879877 0.019576084 0.28478545 0.20928304
0000d0 b0 42 48 3e ca b4 c6 3d f8 3a 9d bc 7e ee f5 3b
       0.1955669 0.097024515 -0.019193158 0.007505237
0000e0 88 d1 5b be 6c 7a 02 3e cb 9a 9d bd 99 78 3a be
       -0.21466649 0.12742013 -0.0769554 -0.18210067
0000f0 57 8b fb 3c ab 39 7d 3e d0 e4 84 3e 7b 28 5a 3e
       0.03070609 0.2472903 0.2595582 0.21304505
000100 40 ee 6b bc a0 73 05 be 99 25 33 3d ab c1 cc bd
       -0.014400065 -0.13032389 0.043737028 -0.09997877
000110 af e6 ad bd 51 e8 ce 3d 3f 6e 0c 3e 38 74 69 bd
       -0.08491265 0.101029046 0.1371393 -0.0569956
000120 98 ac 06 be 99 aa 84 bd 19 79 56 bd 1f 4d 46 3c
       -0.13151777 -0.064778514 -0.05236158 0.012103348
000130 ee 09 81 bd 61 4f 00 be db 47 c4 bd ab 46 ee bd
       -0.06300722 -0.1253028 -0.09584018 -0.116345726
000140 25 19 85 bd a0 73 bd 3d 2c 0d c2 bd 9b ba e2 3d
       -0.064989366 0.09250569 -0.094751686 0.110707484
000150 a1 7f 05 3e de f5 e1 bd 84 21 00 3d 67 5c b4 bc
       0.13036968 -0.110332236 0.031281963 -0.022016717
000160 a0 01 3a 3e e8 c6 2e 3e ea 23 ee 3d f2 48 73 bd
       0.18164682 0.17068064 0.11627944 -0.059395738
000170 fc 53 10 bc bd 7b 0e be 54 78 3e bc 0a 08 2d 3e
       -0.008809086 -0.1391439 -0.011625368 0.16897598
000180 53 40 5c bc c6 fc c4 bd 04 15 05 bd 09 44 ae bd
       -0.01344307 -0.09618525 -0.032490745 -0.085090704
000190 cf 36 d4 3d 9d dc 83 bd 01 cf e1 3d 1f 30 a1 3d
       0.103620164 -0.06438563 0.11025811 0.078705065
0001a0 4d 7a 04 3e dc 82 ab bc d6 e1 62 bd cb c7 bb 3d
       0.12937279 -0.020936422 -0.055391155 0.09168967
0001b0 2e c4 6a 3b 7e e5 a2 3d 06 f0 5e 3d b1 74 e0 bc
       0.0035822499 0.079539284 0.054428123 -0.027399393
0001c0 88 74 05 be 62 9c 70 3d fb 63 b0 bb 3a 54 52 3d
       -0.13032734 0.05874289 -0.0053830124 0.051349856
0001d0 86 28 0d 3d 0b 17 c7 bd 02 5d 1d bd 66 73 19 bd
       0.034462474 -0.09721192 -0.038418777 -0.03746357
0001e0 11 7c 50 bd 5a 4f f1 3c 62 bc d1 bd 99 b5 d9 bc
       -0.05089957 0.029456783 -0.10241009 -0.02657585
0001f0 c4 98 77 bd 77 cf 00 be a2 0e 9f 3d dc 59 f6 bd
       -0.060448423 -0.12579142 0.07766463 -0.12028858
000200 15 83 a9 bd 66 4a d1 bb 94 3a 2c bd e0 e6 49 be
       -0.08276955 -0.006387043 -0.042048052 -0.19716978
000210 d2 ce 89 3d 40 3a 0d 3d ca 55 2c 3e cf fb ba ba
       0.06728901 0.03447938 0.16829601 -0.0014265719
000220 8d c4 0f be 01 ca e1 bd 56 19 43 3d 9c 9a 26 be
       -0.14039822 -0.11024857 0.047631584 -0.16269916
000230 d8 a7 8b 3d 22 58 25 3d 11 fe fe 3d 34 47 ea bd
       0.06819123 0.040367253 0.12450803 -0.11439362
000240 13 95 89 ba 7f ef 12 bc 7a ba b6 39 4c 0d c8 3d
       -0.0010496698 -0.008968233 0.0003485268 0.09768161
000250 36 c1 ba bc 6c 61 10 bd bf 77 42 bd 6e b5 3d 3d
       -0.022797208 -0.03524916 -0.04747748 0.046315603
000260 66 11 d0 3d d7 28 2a 3d 99 11 22 3e e3 ad db 3d
       0.101595685 0.041542854 0.15827025 0.10726526
000270 f0 60 22 3d b3 f0 99 bd b5 a1 12 3d 8c 4a 04 3e
       0.039643228 -0.07516613 0.035798747 0.12919062
000280 63 20 65 bd ab b9 ab bb be 51 c8 bd 59 59 2b 3e
       -0.05593909 -0.005240639 -0.09781216 0.16733302
000290 27 de 3f bd fb c3 ca 3c 05 d2 21 be 6f 4d 1a 3e
       -0.04684272 0.024751654 -0.15802772 0.15068601
0002a0 45 eb 2d 3e f2 10 86 bc 8d ab 15 be 4f 85 28 3d
       0.1698428 -0.016365502 -0.14616223 0.041142758
0002b0 24 c1 a7 3d 96 67 ff 3d b0 e0 45 3d 99 2b 05 be
       0.081911355 0.12470929 0.04830998 -0.13004912
0002c0 6a 41 b9 3d 0a 14 4b 3d 30 19 31 3e 70 e0 3b 3d
       0.0904568 0.049579658 0.17294765 0.045868337
0002d0 56 9d be bc 3b f0 41 3d ca 37 c0 bd ff 58 53 bd
       -0.023268383 0.047348242 -0.09385641 -0.051598545
0002e0 e1 c6 a8 3d d7 17 8f bd 1d c0 04 3d 54 e1 be 3d
       0.08241058 -0.06986969 0.032409776 0.09320322
0002f0 17 2f d3 3d ec 6b 6f be 15 f4 ec bd 40 a4 30 3d
       0.10311716 -0.23381013 -0.115699925 0.04312539
000300 ab d9 24 3d 11 f6 5c bd 47 08 17 3e 79 14 9e 3d
       0.040246647 -0.053945605 0.14749251 0.077187486
000310 16 16 4a be b1 5b 36 3d 19 53 66 ba 23 60 10 bd
       -0.19734988 0.044521037 -0.0008786186 -0.035247933
000320 86 cb 46 bd b5 27 23 be b1 38 6a be 2b ab f3 3d
       -0.04853394 -0.15933116 -0.22873189 0.11897882
000330 20 f2 4a 3d 85 f9 ed bd 80 91 0f be 1b a1 38 be
       0.049547315 -0.11619858 -0.14020348 -0.18030207
000340 ae 09 f0 3a 90 0c 79 3d 98 cf 91 3c 26 8c 55 be
       0.0018313432 0.060802996 0.017799184 -0.20854244
000350 a5 2e 21 bc c2 98 3f 3d b1 06 e0 3d a3 3a ca 3c
       -0.009837781 0.04677654 0.10938776 0.024686163
000360 1a 39 17 be 72 44 00 be 7f d1 ae bd 50 f7 45 3d
       -0.14767876 -0.1252611 -0.08536052 0.04833156
000370 4b d2 91 3d f2 4e b9 bd ee 3e 8c 3d f0 45 5c be
       0.07120188 -0.09048261 0.068479404 -0.21511054
000380 3e ef 97 3d 83 24 15 be 0d 3f 80 bd 9d c4 43 be
       0.07418679 -0.1456471 -0.06262026 -0.19117971
000390 4e 24 db 3d 22 b1 2b 3e 2b b5 c4 bc 5d 65 53 bd
       0.10700284 0.1676679 -0.024012169 -0.05161034
0003a0 d7 85 9d be 4a 78 bb bd 27 76 9b bd d9 ab 17 be
       -0.30766174 -0.09153803 -0.07590895 -0.14811648
0003b0 e9 fb 62 bd 17 7e f8 bc a3 84 cb 3c 4f 40 dd 3d
       -0.05541602 -0.030333562 0.02484352 0.108032815
0003c0 fb 42 a7 bd 12 3c 8b 3c 81 09 f1 3d 4d 56 03 bc
       -0.081670724 0.016996417 0.11769391 -0.008016181
0003d0 66 5f 83 bd 4b ea 95 3d c3 67 57 3d 11 cc 31 3e
       -0.0641468 0.073200785 0.05258919 0.17363001
0003e0 38 0f b0 3d 0e 10 0e be 41 1c 8d 3b 91 60 f9 bd
       0.08596653 -0.13873312 0.0043063466 -0.12176622
0003f0 f2 54 a9 bd 06 1b 8d 3e bc bc d9 3b 9e ec 9f bd
       -0.08268155 0.2755968 0.0066448133 -0.07808803

session_tower.transformer.layers.0.self_attn.in_proj_bias f4 [192]
000000 6f 56 05 be 57 96 cd bc e5 fa 86 bc ef a3 a0 3c
       -0.13021253 -0.025096102 -0.016477058 0.01960942
000010 24 03 23 be 03 41 45 be e7 b9 0c bd b7 f0 95 3c
       -0.15919167 -0.19263081 -0.034356978 0.018303258
000020 ba 84 a1 3c 55 f2 94 3d 17 db 38 3c c3 41 2e 3e
       0.01971661 0.07272784 0.011282704 0.17017274
000030 53 01 02 3e 70 37 a2 be 0b d1 1e bc 6b 3d 4b 3c
       0.12695818 -0.3168292 -0.009693394 0.01240478
000040 72 4d 88 3e 26 61 9a 3e b9 54 30 3d c5 7f 14 bc
       0.26621586 0.30152243 0.043049548 -0.009063666
000050 f9 f9 2e bc 0f 88 43 be 10 06 2d bd b8 d1 29 bd
       -0.010679715 -0.19094871 -0.04224211 -0.04145977
000060 1e c1 93 bd e7 2c 7f be f6 c5 bb bc 83 25 d6 3b
       -0.072145686 -0.24919473 -0.022921544 0.0065352335
000070 b8 4d 89 3e 95 bd 1d be 9e b4 26 3c 9c 2b ba bc
       0.26817107 -0.15404351 0.010174898 -0.022725873
000080 06 a9 6c 3d 03 a2 3a bc ac 17 e6 3c 32 f6 35 bd
       0.05777838 -0.011391166 0.02808746 -0.044424243
000090 31 9e b9 3c 33 04 c5 bd 3a 65 eb bd 9d f5 ae bb
       0.02265844 -0.096199416 -0.11493917 -0.005339338
0000a0 9b f0 43 3d 68 1d 9d 3d 94 15 b5 bd f3 3d 2f bd
       0.04783688 0.076716244 -0.08842006 -0.04278369
0000b0 fe f1 12 3d 16 d9 b9 3d 57 f5 21 be be d4 cb 3c
       0.035875313 0.09074609 -0.15816246 0.024881717
0000c0 73 c1 cc 3d 39 6e 83 3e 2f 3b 64 bd 1d 14 1c be
       0.09997835 0.2567003 -0.055720504 -0.15242048
0000d0 e3 cc 9b bc 06 86 a0 bd 74 31 84 3d f6 15 9d be
       -0.019018596 -0.07838063 0.06454745 -0.30680817
0000e0 ab 6c c2 bd d6 14 38 bd 1b 92 06 3d a0 f4 a4 3d
       -0.09493383 -0.044941746 0.03285418 0.08054471
0000f0 d0 53 d3 3c 3c c9 f8 3c 4a 8d b5 bd f4 12 da bb
       0.0257968 0.030369394 -0.088648394 -0.0066550914
000100 e9 92 3b 3c fa 80 99 3b cd 4a 98 bc 21 b4 cd 39
       0.0114486 0.0046845647 -0.018590355 0.00039234853
000110 48 41 5d bd a2 e9 30 bc e8 b2 c1 bc 93 47 87 bc
       -0.054017335 -0.01079789 -0.02364488 -0.016513621
000120 08 52 62 3d ce 55 65 bc 1b 16 0d bd 32 30 32 bc
       0.055254012 -0.013997508 -0.03444491 -0.0108757485
000130 48 fd 88 3d 5b cd 74 bd 19 26 99 bd a4 38 19 be
       0.066889346 -0.059766155 -0.0747797 -0.14963013
000140 5b db 2d 3e a2 d0 34 3e b7 f4 79 3d f1 90 fc 3b
       0.16978209 0.17657712 0.061024394 0.007707708
000150 20 2e 38 bd 44 c5 2f be cd 8f 23 be 8c c9 69 3d
       -0.044965863 -0.17165095 -0.15972824 0.057076976
000160 03 cc b2 bd ea 7c 37 be d7 8f 1a be 71 5b 74 bd
       -0.087303184 -0.17918745 -0.15093933 -0.059657518
000170 30 65 38 3e ca a1 e0 bd 2b 10 b2 3d 58 5d db 3d
       0.1800735 -0.10968359 0.0869449 0.10711163
000180 85 88 2f 3e 06 4a 50 be 23 4b d7 3d 31 3f 41 be
       0.17141922 -0.20340738 0.10512378 -0.18871762
000190 e7 00 80 3d 34 12 40 be b3 8f b6 bd 35 64 a6 3d
       0.06250172 -0.18756944 -0.08914127 0.08124582
0001a0 dc f4 ec 3d eb bf 01 3e d5 75 e6 bd 6f f4 0e be
       0.11570141 0.12670867 -0.112529434 -0.13960432
0001b0 ca d0 2d 3e 9a 28 f5 3d 4f 54 1d be c3 ee 15 3e
       0.16974178 0.11970635 -0.15364192 0.14641862
0001c0 f0 e5 b7 3d 39 f3 87 3d 79 1f 0c be 03 87 35 bd
       0.08979404 0.06638188 -0.13683881 -0.04431821
0001d0 4f 4e e8 bc f8 5d e6 bc 99 6b af 3d 9b a6 e8 bd
       -0.028357653 -0.02812098 0.085654445 -0.113599025
0001e0 77 6e ba bc 3c c8 e9 bd 75 f0 eb 3a 45 dc bf 3d
       -0.022757752 -0.11415145 0.0018000739 0.09368185
0001f0 f7 cc 8f 3c 79 e4 ef 3c b2 d4 e1 bd 1e eb 2b bd
       0.01755379 0.029283749 -0.110268965 -0.041972272
000200 0d 01 0b bc fb d1 2f 3c 1b fb bb bb a7 e9 4c bb
       -0.008484137 0.010731216 -0.005736721 -0.0031267197
000210 90 08 ae 3c 32 eb 32 bc a0 73 59 3c 7f 11 c6 3a
       0.021244317 -0.010920333 0.013272196 0.0015111415
000220 d4 d6 1d 3d c9 43 86 3c 01 5b a4 3c 91 cc b5 bc
       0.038534954 0.016389744 0.020062925 -0.022192271
000230 8e 9d 20 bc 5f b8 88 3b 6a f7 45 bc 3d 11 1f 3b
       -0.009803189 0.0041723694 -0.012082914 0.002427175
000240 29 18 69 bb 30 c4 b2 3c 84 c1 d9 bb 39 7f cf bc
       -0.003556738 0.021822065 -0.0066453833 -0.02532922
000250 32 79 88 bc a5 4f 9f 3c 07 be e8 bb e4 a3 2c bb
       -0.016659353 0.019447157 -0.007102731 -0.0026342804
000260 2f 86 b0 bc f7 80 d0 bc a2 4c 24 3d 00 a4 2f ba
       -0.021548359 -0.02545212 0.040112145 -0.0006700158
000270 bd 55 f4 bb e2 d9 01 3d fe 4a fe 3b 8e 5b 28 bc
       -0.00745651 0.03170193 0.0077604046 -0.010275735
000280 07 16 13 3d fc 39 17 3b e9 e0 96 3c df e2 5f bc
       0.03590968 0.0023075333 0.018417792 -0.01366493
000290 29 81 f0 3c f3 8e 84 bc f3 5a a5 bb 00 69 a9 3b
       0.029358463 -0.016181445 -0.0050462424 0.0051699877
0002a0 92 7d ae 3c 5c 4d fd 3b 74 68 9c 3a 1a 5f 80 3b
       0.021300111 0.007730169 0.0011932985 0.003917587
0002b0 9e 9f 8b 3b 5a 45 e7 3c 1c c6 6e 3c 96 28 d9 3c
       0.004260971 0.028231312 0.0145736 0.02650861
0002c0 91 fd fe ba 4a b0 b2 3a 40 8c 01 3c e0 ac 32 bc
       -0.0019454231 0.001363286 0.007906973 -0.010905474
0002d0 b9 cf a1 bb 38 a4 e1 3c 4e 85 d8 bb e7 9a 3b bb
       -0.0049380925 0.027544126 -0.006607688 -0.0028626265
0002e0 f8 14 93 3c 49 21 1d 3c 5d 74 5a 39 16 ab e0 3b
       0.017954335 0.009590455 0.00020833449 0.0068563325
0002f0 89 d8 85 bb 30 27 aa bb 2f a4 1b bd 22 db 94 3c
       -0.004084651 -0.00519266 -0.037998375 0.018170897

session_tower.transformer.layers.0.self_attn.out_proj.weight f4 [64, 64]
000000 a4 ef 70 bc 4d f1 5e 3d f7 db 07 bd 7a 21 7f 3c
       -0.014705572 0.05442934 -0.03316876 0.015571946
000010 45 d0 df bd e4 20 f0 bd fe 56 7f 3d 71 d2 28 3c
       -0.10928396 -0.117250234 0.06233882 0.010304079
000020 3d 03 98 bd ee 2d 30 3e 67 47 0e bd e4 84 df 3d
       -0.07422493 0.17205021 -0.034736063 0.10914019
000030 c0 5e 0b 3e 1c 98 15 3d 9b 42 ea 3b c7 d2 ad bc
       0.13610363 0.036522016 0.0071490533 -0.02121867
000040 83 8e aa 3b 97 06 67 3d 17 39 da bd 2d 44 f9 bd
       0.005204977 0.05640277 -0.1065542 -0.121712066
000050 4b ec 8c bd 64 30 a1 3d d3 69 f9 3c 67 48 cf bd
       -0.06881007 0.07870558 0.030445969 -0.101212315
000060 f2 a0 8b 36 86 b9 e5 3c 78 2c 03 3e 8a b0 80 3b
       4.1612593e-06 0.028042566 0.12809932 0.003927295
000070 6e 28 bb 3c 94 43 c1 bd 1f 8b c7 3d 74 41 88 bd
       0.022846427 -0.09436718 0.09743332 -0.06653109
000080 c5 e9 7e 3d 06 27 70 bd 02 b8 3b be 66 6c b4 bd
       0.06223466 -0.058630966 -0.18331912 -0.08809738
000090 b9 fc 6b 3d 1d 6f 2b be 37 e6 c5 3d 07 52 85 bd
       0.057614062 -0.16741605 0.096630506 -0.06509786
0000a0 8e 4d 95 bd d9 2d aa bb 4d c5 1f be d1 69 1c 3d
       -0.07290183 -0.0051934537 -0.15602608 0.038186852
0000b0 a3 ce 6f 3e 93 b1 d4 bd 21 30 07 be 97 a9 c4 3d
       0.2341867 -0.10385432 -0.13201953 0.09602659
0000c0 bc 3b c8 3d 60 33 a1 bd a4 a3 e9 3d 95 27 a8 3d
       0.097770184 -0.07871127 0.11408165 0.08210675
0000d0 be 82 26 bd f9 df 83 bc d1 ba ca 3d e5 70 67 3d
       -0.04065203 -0.01609801 0.09898914 0.05650415
0000e0 fc 79 92 bb 25 7c 07 be 07 da 80 3d 53 c1 bf bd
       -0.004470108 -0.13230951 0.062915854 -0.093630455
0000f0 a9 d4 d0 bd 2a 14 c5 3d 6a aa c2 3d 91 14 3f 3d
       -0.10196812 0.096229866 0.0950516 0.046650473
000100 9f 8d 0f be 90 51 e8 3d ca 25 52 3d 0d 11 e5 3d
       -0.14018868 0.11343682 0.05130557 0.11184893
000110 97 8b 42 3d e1 84 86 bc 67 aa 14 bd 3b 7f 14 bd
       0.047496404 -0.016420783 -0.03629532 -0.03625415
000120 d0 5f 61 3c a1 86 cf bd b3 f6 d5 3d aa b7 99 3b
       0.013755754 -0.101331 0.10447445 0.004691084
000130 fd 65 dc 3b 38 3e 10 3d 9b 2b 13 bc 35 e2 09 3e
       0.006726025 0.035215586 -0.008982564 0.13465197
000140 32 8c b0 3d 73 5c 64 bc 57 cb a5 bc 20 fb d4 3d
       0.0862049 -0.013938057 -0.020238562 0.10399461
000150 05 d1 75 bd f8 62 89 bc 45 bd e3 3c 6a 23 40 3e
       -0.06001379 -0.016770825 0.027800212 0.1876351
000160 67 0a 42 bd 5b 4f c4 3d 6b 0a 1d bd 9e 2d 97 3c
       -0.0473732 0.09585448 -0.038340013 0.01845437
000170 5a 2c 12 3d 44 f5 12 3d 8d 00 45 bd cf 79 11 bd
       0.03568683 0.035878435 -0.04809623 -0.035516556
000180 b8 6e 12 be dc 2e fd 3d c0 2d 81 bd 16 3a 56 bd
       -0.14300048 0.12362453 -0.06307554 -0.05230149
000190 e8 69 31 3d 76 52 bb 3c 98 e4 4b bd ca 60 a6 3c
       0.04331389 0.022866469 -0.04977855 0.020309824
0001a0 55 c7 b2 3d 76 20 a8 bd 0e 2c 04 bd 2a ac bf 3c
       0.08729426 -0.082093164 -0.032268576 0.023397524
0001b0 0a 27 c0 bd 49 fd 15 be 3a 4a 1c 3d b4 94 d1 3c
       -0.09382446 -0.14647402 0.038156725 0.025583602
0001c0 c8 ce 89 bd 54 57 67 bd 26 6f 86 b9 fc 72 3f 3d
       -0.067288935 -0.056479767 -0.00025641284 0.046740517
0001d0 9f c7 bc 3d 52 6f b3 bc 41 88 ab 3d 4c e3 4d bd
       0.09217762 -0.021903668 0.08375598 -0.050265595
0001e0 75 78 84 bd fa 0d 5e bc 8d ff 94 bc ad 77 5e 3c
       -0.06468288 -0.013553137 -0.018188262 0.013578338
0001f0 aa 1c b8 3d 30 58 93 bd b9 28 ca bd c6 d9 f6 3d
       0.08989842 -0.07194555 -0.098710485 0.12053256
000200 68 8c 1a be 74 00 0b 3c 7f ba da bc 5f fd eb bd
       -0.15092623 0.008483995 -0.026700256 -0.11522936
000210 c4 71 21 3e bf 61 b2 bb e0 64 81 bd 4f 5f 6a 3c
       0.15766054 -0.005443781 -0.063180685 0.01430495
000220 e2 5b 02 3d 0b ed e5 bd 9a 09 01 be 71 32 3a 3d
       0.031825908 -0.11226853 -0.12601319 0.04545826
000230 ce 27 9f bc dd f1 42 3d 78 53 07 be 9a 4d 97 bd
       -0.01942816 0.04759394 -0.13215435 -0.07387848
000240 c1 0f 17 3e 04 71 74 3d 9c af b7 3d 19 c3 b1 3d
       0.14752103 0.059678093 0.08969042 0.0867979
000250 d2 5c bb 3b e9 85 c6 bd 47 87 c4 3d a3 c7 ab 3c
       0.005717852 -0.0969351 0.095961146 0.020969218
000260 62 2f 40 bd 6d 78 c0 3c 99 62 10 bd 8f 92 95 bd
       -0.046920188 0.023494923 -0.03525028 -0.073033445
000270 a7 2a 8b bd ed 60 4c bd 24 c7 80 3d 9b 65 0e bd
       -0.06795245 -0.049897123 0.06287983 -0.034764867
000280 83 4d a5 bc 1f de 3f 3d 33 7e fb bc 32 7a a7 3c
       -0.020178562 0.04684269 -0.030699825 0.02044401
000290 f9 9a 02 be 52 c4 31 bd 56 f2 ef bd 06 5f 38 3d
       -0.1275443 -0.043400116 -0.11716144 0.045012496
0002a0 51 eb f9 3d 0f 48 15 3d 04 b2 bd 3d c2 d9 fb 3c
       0.12203086 0.036445674 0.092624694 0.030743483
0002b0 56 a1 8a 3d 99 c3 60 3d 96 fb 51 be 68 4e 30 bd
       0.06769054 0.054874036 -0.20506129 -0.043043524
0002c0 0c c6 66 3d fa 53 96 b9 cc d5 ac bd 92 c5 25 bd
       0.056341216 -0.00028672797 -0.08439216 -0.04047162
0002d0 5b 2a 83 3d 29 eb 80 bd 50 a5 04 be 3b b8 ed b9
       0.06404563 -0.06294853 -0.12953687 -0.00045341425
0002e0 ee d0 25 3d e4 87 cc bc a2 0a 98 3b 3f c9 0e be
       0.040482454 -0.024967141 0.0046399394 -0.13943957
0002f0 19 9f d7 bd ab d0 19 bd 34 a7 3d 3d d9 de c2 bd
       -0.10528392 -0.037552517 0.046302035 -0.09515161
000300 c9 e5 27 3d 53 fc c2 bc df b7 aa bd a4 93 b8 bd
       0.040990625 -0.023801958 -0.08335852 -0.09012535
000310 45 8c b0 3c 7a af 68 bd be 5b a6 3d 14 b3 ac bd
       0.02155126 -0.056807972 0.08122967 -0.08432594
000320 c4 44 01 3e f9 9d 54 bd c2 f1 d2 bb aa c8 d6 3d
       0.12623888 -0.051908467 -0.006437511 0.104874924
000330 0d 2c a2 bd 94 1b 41 bd 42 fe 41 bd 9a 2c 9c bc
       -0.07918558 -0.04714544 -0.04736162 -0.019064236
000340 97 62 a0 3d 3d ce 67 bd dc 65 88 3c 29 bb 1c bd
       0.078313045 -0.05659317 0.016650133 -0.038264427
000350 7d 79 15 bd 13 b5 cc 3d 16 c0 e4 bc ce a5 04 be
       -0.036492813 0.09995475 -0.027923625 -0.12953874
000360 dd 29 36 bd 7c b1 ec bc d0 0f 12 3d 0a ff 7c bd
       -0.044473518 -0.028893225 0.03565961 -0.06176666
000370 cb ec a2 bc 93 69 ff bc 5f 94 ef bc f4 2d 25 3d
       -0.019888302 -0.031178271 -0.029245554 0.040327027
000380 c6 9d 98 3c 7b 7f 18 bc bd 4b e7 3d 2e 06 94 3a
       0.01862992 -0.009307737 0.11293743 0.0011293346
000390 63 e7 e3 bc c9 e0 00 bd a8 3b 06 be dd 93 6d 3d
       -0.027820295 -0.03146437 -0.13108695 0.05800234
0003a0 47 fd d8 3d e3 21 29 3d 06 c2 6e bd 1b 99 cc 3d
       0.10595184 0.041292083 -0.058290504 0.0999014
0003b0 4d 3c 8b bb c4 90 93 3d 92 b8 90 3d ea c2 f4 bc
       -0.004249132 0.07205346 0.07066454 -0.029878099
0003c0 e6 24 4a bd 9a 71 82 3b 98 e1 0e 3d fa 93 48 3d
       -0.049351595 0.0039808275 0.03488311 0.048969246
0003d0 49 ac 49 bd b9 08 00 be 28 eb 03 be 33 1c f1 bc
       -0.04923657 -0.12503327 -0.12882674 -0.029432392
0003e0 19 88 b1 bc 2e 13 05 3e c6 ca bb bd cb f1 f8 bd
       -0.021671342 0.12995598 -0.09169535 -0.12155493
0003f0 bd 2a 54 3d 26 63 b4 3d d3 df 1a be 6f eb 74 3d
       0.05179857 0.088079736 -0.15124445 0.05979484

session_tower.transformer.layers.0.self_attn.out_proj.bias f4 [64]
000000 40 2c 8c bd 15 f3 24 3d e8 0f b1 3c a9 2b f1 3c
       -0.068443775 0.040270884 0.02161403 0.029439764
000010 11 d8 8d 3c c4 f0 68 bc 7e cc 42 3d 2d 1b b0 3c
       0.017314943 -0.014217559 0.0475583 0.021497333
000020 dc 47 2b bc b6 b8 0c 3d dc 08 8f bc 64 0c 90 bd
       -0.010454144 0.03435584 -0.01746028 -0.07033613
000030 50 4a 6c 3d 59 7f 1d 3d bc ad a0 3d f6 13 96 bc
       0.057688057 0.038451526 0.07845637 -0.018320065
000040 29 4d 84 bd 3e 74 56 3d 9e e9 d3 bc 08 7d 92 bc
       -0.0646003 0.05235695 -0.025868233 -0.017881885
000050 04 62 d6 3c 40 a3 c2 3c df 4b fb 3b d0 f0 4b 3b
       0.026169784 0.023759484 0.0076689566 0.0031118877
000060 e4 1c bd 3c 0f 4b 96 3d fc 0b 97 3b f9 e8 8c bc
       0.023085065 0.07338535 0.004609583 -0.017200934
000070 5d 8a ad bc 89 47 73 bc 5b 81 46 3d 6f b1 70 bc
       -0.02118414 -0.014848598 0.048463207 -0.014690741
000080 a6 1a f8 3c 3d 7c b0 bc f7 f9 d0 3c 85 b5 d3 3b
       0.030286144 -0.021543616 0.025509818 0.006460848
000090 85 e3 c1 3c 86 00 14 bd a2 17 26 bc 56 ce 07 3d
       0.02366806 -0.03613331 -0.01013747 0.03315576
0000a0 2d d0 72 bd fb 67 0c bd 64 50 7f bc c7 12 a7 3a
       -0.059280563 -0.03427885 -0.015583131 0.0012746685
0000b0 e4 de 8c bc 99 1b ca bd 95 84 e6 3c 08 eb 4e bb
       -0.017196126 -0.09868545 0.028139392 -0.0031573195
0000c0 39 c8 f2 3b 49 61 d3 bc d1 05 07 3d 66 6a ef 3a
       0.0074091223 -0.025803225 0.03296453 0.0018265962
0000d0 b4 7e f6 bc 09 de 1b 3d 47 24 06 ba ce ba 22 bc
       -0.030089714 0.038053546 -0.00051171 -0.009932233
0000e0 bd 6f 43 3d 9b 62 02 3d b2 cf 6e bc d1 86 6a 3d
       0.047713984 0.03183232 -0.014575886 0.057257477
0000f0 51 2a ef bd 5c aa 76 b9 5c 07 57 3d 09 bc 08 3a
       -0.11677993 -0.00023523852 0.052497253 0.00052160077

session_tower.transformer.layers.0.linear1.weight f4 [128, 64]
000000 d5 d7 18 be e8 90 88 ba d2 58 8d 3d 83 b6 15 3d
       -0.14926083 -0.0010419162 0.06901707 0.03655101
000010 49 81 27 3e 68 71 bd bc b7 f7 99 3d d6 38 87 bd
       0.16357912 -0.023125365 0.07517951 -0.066026375
000020 9f e3 2f 3e fa 8d 61 3d 9e 1d 23 3d ff 78 73 bc
       0.17176674 0.05506704 0.039823167 -0.014860391
000030 85 a9 52 3c 6e 18 aa 3d 19 1a 2b 3d 63 75 5a 3d
       0.012857799 0.08305441 0.041772936 0.053334605
000040 1b d0 08 bc da dc fc bd cf 9e 5e bd 90 9e 6d 3d
       -0.008350397 -0.123468116 -0.05435067 0.058012545
000050 9b 87 da 3b c4 92 34 bd b0 2d f6 bc 81 65 04 3d
       0.0066689975 -0.04408528 -0.030051082 0.032323364
000060 78 2b 5f 3d 73 98 d1 3d 13 34 5e 3d 77 80 85 bd
       0.054484814 0.102341555 0.05424888 -0.06518643
000070 d8 e6 a7 bd c4 93 8c 3d 7b 0a 00 bd e8 bf b8 bd
       -0.08198327 0.068641216 -0.031259995 -0.09020978
000080 05 b0 92 3c 34 dd 60 be 0c 89 29 3e 53 2a cc bd
       0.017906198 -0.21959382 0.16556185 -0.0996901
000090 7e 36 30 be 08 a9 bd bc d9 4f ff bd 60 05 53 bc
       -0.17208287 -0.02315189 -0.124664016 -0.0128796995
0000a0 07 98 e0 bd 1c 7c fe bb b3 a4 44 bc f8 88 94 bd
       -0.10966497 -0.00776626 -0.012002158 -0.07252687
0000b0 88 df d0 b8 a9 d9 9f bc d5 b4 3a 3e 0a 7c f3 bc
       -9.959849e-05 -0.019512968 0.18233044 -0.029722232
0000c0 f4 58 d4 3c d7 84 00 be 89 b2 09 3c 4c 84 08 3e
       0.025921322 -0.12550674 0.0084043825 0.13331717
0000d0 e3 c0 34 bd ab a3 c6 3c 96 e1 50 3b 05 4c 39 bd
       -0.044129264 0.024247965 0.003187274 -0.045238513
0000e0 5a cf 0d bd 09 2f d1 3c 2c 14 cd 3d 76 47 27 be
       -0.034621574 0.025535123 0.10013613 -0.16335854
0000f0 cf 7d 85 3c c2 a3 ef bc e2 53 00 3e a5 ce 3b 3d
       0.016295342 -0.02925289 0.12531999 0.04585137
000100 9e 10 70 be f4 b5 9b bd cb 28 a4 3d 61 e2 0a 3e
       -0.23443839 -0.07603064 0.08015593 0.13562919
000110 13 dc e6 3c 29 da 1d 3d a5 d6 2e 3d 7d 60 f6 bd
       0.028181111 0.038538132 0.04268517 -0.120301224
000120 93 ce c1 3d a9 f5 d3 bd 71 92 84 3d c2 c7 9e bc
       0.09463229 -0.1034959 0.06473244 -0.019382361
000130 e8 d0 17 be 9e 94 8b 3b ee aa 2a 3c 02 d3 ed bd
       -0.14825785 0.00425966 0.010416729 -0.11612512
000140 44 25 ec bd 44 a8 a9 bc e5 ab b5 bd 7e 60 a3 3d
       -0.11530545 -0.020710118 -0.08870677 0.07977389
000150 2a 08 07 3d ae 06 b7 bc e1 e8 d3 bd a3 70 02 be
       0.03296677 -0.022342052 -0.103471525 -0.1273828
000160 b0 ac 17 3e da b0 78 bd 8a 14 65 3d b3 c4 36 ba
       0.14811969 -0.060715534 0.05592779 -0.00069720595
000170 be 86 f0 3d d3 fc 80 3b f4 af 6e 3d c2 62 ea bd
       0.1174445 0.003936389 0.05827327 -0.11444618
000180 86 da e7 3d 65 4f 5e be 95 a9 61 3c 45 12 11 be
       0.11320977 -0.21709974 0.013773342 -0.14167126
000190 00 0e 2f bc 94 ea 66 3d 98 d2 cb bd 28 e0 e1 bd
       -0.01068449 0.056376055 -0.09952277 -0.110290825
0001a0 c0 90 92 bd ed 9d ef 3c d7 d9 8c 3d fe 31 1d be
       -0.07156515 0.02925011 0.06877487 -0.15351102
0001b0 23 d3 1a 3d 4a 80 66 3d 81 bf 97 3c a0 54 62 bc
       0.037799012 0.05627469 0.018523933 -0.0138141215
0001c0 51 4f d6 3d ed c5 a1 bd 78 0b a0 bc 5e 10 2b 3e
       0.10464347 -0.078990795 -0.019536719 0.16705462
0001d0 02 3d 21 be 42 97 81 bd 4a 4e cb bb 5f 29 f0 3d
       -0.15745929 -0.06327678 -0.006204401 0.11726641
0001e0 c0 86 3f be 45 3f 8f bc 31 f7 46 3c 8f 22 a7 bd
       -0.18703747 -0.017486224 0.012143896 -0.081608884
0001f0 31 45 37 bd 06 89 56 bd 9a 28 f6 3c 8d 51 98 bd
       -0.04474372 -0.05237677 0.030048657 -0.074374296
000200 c3 ce 19 3d cf 4b 81 3d 71 f5 a1 3d 18 fe cf bc
       0.0375507 0.063132875 0.07908142 -0.025389716
000210 04 95 32 3d 2a e9 c1 3c 31 1e ba bd ec c0 f9 3d
       0.043599144 0.023670752 -0.0908779 0.12195
000220 d5 af 78 bd eb f1 b9 bd 52 e2 be bd 78 ea f0 3d
       -0.06071456 -0.09079345 -0.09320511 0.11763471
000230 27 10 80 3d 8b b2 5a 3c c9 3e 44 3d cf c4 61 be
       0.06253081 0.013348232 0.04791144 -0.22047733
000240 35 b4 43 3e fe ae 71 3c 5c 2b 93 bc 83 9f 24 3e
       0.19111712 0.014751194 -0.017965011 0.16076474
000250 ea d9 9b bd cd 41 b4 bb c1 c1 e1 3c 2f a8 13 3e
       -0.07609923 -0.005501008 0.02755821 0.14419626
000260 27 00 ca ba f4 ad 76 bd 3f dd e9 bd 6e e5 f8 3c
       -0.0015411422 -0.06022449 -0.114191525 0.030382838
000270 fe f9 67 bd eb 87 82 bd 7f 44 af 3c d0 f2 98 3d
       -0.056634896 -0.063735805 0.021394966 0.07468188
000280 22 66 45 bc 19 0e a8 3c b7 e0 f5 3c ea 51 1d bd
       -0.012048276 0.020514535 0.030014379 -0.038408197
000290 5c 79 23 3e 67 ca c2 bd 43 02 c8 bd a8 c6 9f bd
       0.15964264 -0.095112614 -0.097660564 -0.078015625
0002a0 78 7a c3 ba b3 d6 eb 3d 1d 85 9d 3d ca 4f 40 3b
       -0.0014913818 0.1151556 0.07691405 0.0029344433
0002b0 3b 79 8c bd 1d 7b b3 bd ad 49 e5 3c f2 2e a8 bd
       -0.068590604 -0.08763716 0.027989233 -0.08212079
0002c0 7d f4 0c 3d c4 54 29 be ad 22 b8 3d a6 b3 06 be
       0.03441285 -0.16536242 0.08990989 -0.13154468
0002d0 1e 9d 21 3d 69 d2 81 3d d8 29 ec 3d 7c 33 43 3c
       0.03945648 0.06338961 0.115314186 0.01191413
0002e0 91 e1 89 bc 5f a1 7b 3d 33 5c e8 bd fd cb 43 bd
       -0.016831191 0.061433192 -0.113457106 -0.04780196
0002f0 72 a3 c1 3d e0 e1 7e 3b 21 9b 5f be a3 bc 99 3c
       0.09455003 0.0038891956 -0.2183652 0.018766707
000300 d8 4f aa bc 97 5d b2 3d 11 ee cf bd 1f c9 77 3c
       -0.020790026 0.08709257 -0.101528294 0.015123635
000310 b1 b9 c5 3c e4 9b 06 3d ed 21 c2 3d f2 4d 15 bd
       0.024136396 0.032863513 0.09479127 -0.036451288
000320 05 a8 80 3d 29 e1 de bd 20 d1 0e bd 02 6a bc bc
       0.06282047 -0.1088279 -0.034867406 -0.022999767
000330 5f 58 af bc 66 cf 57 bd d5 13 ea bc f9 5c 40 3e
       -0.021404443 -0.052688025 -0.02857391 0.18785466
000340 25 3c fb 3d 44 61 15 be 73 46 35 bd 8e 5d 69 bd
       0.12267331 -0.14587885 -0.04425664 -0.056973986
000350 d3 9f 8e bd fc 34 2b bc 6a 73 53 be f1 00 b7 bd
       -0.06964078 -0.010449644 -0.20649496 -0.089357264
000360 99 4c 44 3d 9b b2 22 be ea b6 b2 3d 44 82 6b 3d
       0.04792461 -0.15888445 0.08726294 0.057497278
000370 37 84 9b 3d 95 b0 1e 3d 9b 7b c0 bd 57 f6 63 bb
       0.07593577 0.03874262 -0.09398576 -0.003478428
000380 48 4a bc 3d 27 25 3b be bc 59 2e 3c dd ca 15 be
       0.091938555 -0.18275891 0.0106415115 -0.14628167
000390 9e 03 b4 3c 70 da 67 3d 63 6a b3 3d ee 4a e2 3c
       0.021974381 0.056604803 0.08760526 0.02762362
0003a0 e8 bf c8 3d 23 78 40 bd 8d a4 a5 bc 2d 27 bd 3a
       0.09802228 -0.04698957 -0.020220065 0.0014431231
0003b0 96 f7 ae b9 cf 15 27 3e 25 25 d1 bd ff 5e 0b 3d
       -0.00033372332 0.16316913 -0.10212163 0.034026142
0003c0 12 42 b3 3c 0b e6 67 3d 77 17 95 3d 21 fc a3 3d
       0.02188209 0.05661587 0.07279866 0.08007074
0003d0 4f d8 2f be 0f ec 9e bc cd 0a fe bc ee 87 62 3d
       -0.17172359 -0.01939967 -0.03101101 0.055305414
0003e0 af ba 07 3c 4f 97 48 3d 40 43 f1 3b 4e 42 7d bc
       0.008284255 0.048972424 0.007362753 -0.015457703
0003f0 a0 47 48 3e 69 15 43 bc a3 ce 24 be 4c ed 01 3e
       0.19558573 -0.01190696 -0.1609445 0.12688178

session_tower.transformer.layers.0.linear1.bias f4 [128]
000000 1f f4 0a 3d 58 f5 e8 3c f5 d4 11 bd 9f 3c 72 bd
       0.03392422 0.028437302 -0.035603482 -0.059139844
000010 ea fa 24 be c1 38 01 be 02 cc b8 bd c9 f7 dd 3d
       -0.16111341 -0.12619306 -0.090232864 0.10838277
000020 2f 1f a2 bd 85 a6 64 3c 35 26 11 3c e6 d2 17 be
       -0.07916104 0.013955717 0.008859207 -0.14826545
000030 b0 4b a3 3d b2 82 8b 3c 33 df bc bd 61 8a 0c be
       0.079734206 0.017030094 -0.09222259 -0.13724662
000040 97 2c 03 be d9 b3 2c bd e6 44 df bd a5 7e 14 bd
       -0.12809978 -0.042163704 -0.10901813 -0.03625359
000050 40 77 02 3d 01 f3 24 be 81 1d 08 be d3 7a d5 bd
       0.031852007 -0.16108324 -0.13292505 -0.104238175
000060 eb a8 3f be 54 53 9c bb e9 20 d9 bd 3d 9e 10 be
       -0.18716781 -0.0047706757 -0.1060198 -0.14122863
000070 77 a1 3e 3d 9d b1 bb bd 0c b8 11 be ca fd af 3c
       0.046540704 -0.091647364 -0.14230365 0.02148332
000080 f9 a3 4a bd b7 38 0a be 91 ed 8f 3d 59 20 a6 bd
       -0.049472783 -0.13498197 0.07027734 -0.081116386
000090 3c 91 ba bd 96 54 39 bd 0e 69 f6 bd 49 30 7c 3d
       -0.091097325 -0.045246683 -0.12031756 0.061569486
0000a0 56 c2 04 3d 24 08 95 bd 67 48 9d bd 5e ea e0 3b
       0.032411896 -0.07276943 -0.07679825 0.0068638762
0000b0 3f 29 3c bc 14 22 1c be c1 f2 9c 3c ed a8 95 bc
       -0.011484443 -0.15247375 0.019158723 -0.018269027
0000c0 67 35 be 3d 98 95 92 bd 03 03 18 be 7a 96 cf bd
       0.092875294 -0.07157439 -0.14844899 -0.10136123
0000d0 11 dc 4a be 08 b8 30 bd 55 8b f1 bc cb 98 09 be
       -0.19810511 -0.043144256 -0.029485384 -0.13437192
0000e0 a0 d8 d6 3d fe f9 23 3d eb 6a 2d 3d 43 65 05 be
       0.10490537 0.040033333 0.042338293 -0.1302691
0000f0 d6 e3 f9 3c f5 e9 1a 3c 60 ac 69 3b 6e 1f 0c be
       0.030504148 0.009455194 0.0035655722 -0.13683864
000100 70 7b 5c 3d 5d 42 f2 bc 56 42 0d bd fc a4 5a 3d
       0.053828657 -0.02957266 -0.03448709 0.053379998
000110 8e 9e b9 bd 17 5f c6 bd eb bc 2c be f7 5d bb bd
       -0.09063445 -0.09686106 -0.16868941 -0.09148782
000120 9b 47 bc bd 14 c9 c3 3d 35 e7 79 bb cd 2c 3c 3d
       -0.09193345 0.09559837 -0.0038132195 0.045941163
000130 0b f8 2e bd ec 89 61 3c 57 db b5 bd e7 85 58 bc
       -0.04271702 0.013765793 -0.088797264 -0.013215519
000140 6b 13 fe bd 2a be 40 3a 3a 1b b6 bc 11 23 15 be
       -0.124060474 0.00073525554 -0.02222978 -0.14564158
000150 cf e9 25 be ca 0c 57 be f4 e2 d2 bc 13 cf bc bd
       -0.16202472 -0.21000972 -0.025742985 -0.09219184
000160 de 62 7d bd 8a 12 60 3c 99 13 3d bd f4 45 1e be
       -0.061861865 0.013676295 -0.046161268 -0.15456372
000170 65 c8 a6 bd 50 e4 b0 bd d8 f2 1d 37 a9 c1 2c be
       -0.08143691 -0.08637297 9.414471e-06 -0.1687075
000180 86 cf 06 be 4a 37 aa bd 22 7c 1f 3d 61 86 c0 3c
       -0.13165101 -0.08311327 0.03893674 0.023501577
000190 da 3f 10 be fc 99 a7 bd f8 20 cc 3d d3 5d 57 bd
       -0.14086857 -0.08183667 0.09967226 -0.052579712
0001a0 ae 29 3f bd e3 fa 25 3b 96 0c da bc 3c e0 e3 bd
       -0.04667061 0.0025326542 -0.02661733 -0.11126754
0001b0 0e 36 a6 3d a6 d2 31 bd 87 b5 06 be ac d4 20 be
       0.08115779 -0.04341378 -0.13155185 -0.15706128
0001c0 9c a4 50 bd 62 52 ab bd ba 33 39 3c 1d fa 35 be
       -0.050938234 -0.08365323 0.0113038365 -0.17771192
0001d0 49 98 71 3c 2c 49 9e bc d0 63 df bb be 85 1b be
       0.01474578 -0.019322 -0.0068173185 -0.15187737
0001e0 2c 81 54 bd d1 be 36 be f6 45 33 bd d4 40 be bd
       -0.051881 -0.17846228 -0.04376789 -0.09289709
0001f0 fe b6 4e be fd 46 2b bb 39 be 16 be 8e 9c 1d bc
       -0.20186993 -0.0026134842 -0.14721002 -0.009619845
